<?xml version="1.0"?>
<net name="saved_model" version="11">
	<layers>
		<layer id="0" name="input_4" type="Parameter" version="opset1">
			<data shape="1,224,299,3" element_type="f32" />
			<rt_info>
				<attribute name="old_api_map_order" version="0" value="0, 2, 3, 1" />
			</rt_info>
			<output>
				<port id="0" precision="FP32" names="Func/StatefulPartitionedCall/input/_0:0,input_4,input_4:0">
					<dim>1</dim>
					<dim>224</dim>
					<dim>299</dim>
					<dim>3</dim>
				</port>
			</output>
		</layer>
		<layer id="1" name="input_4/Transpose([0 3 1 2])/value2254628093" type="Const" version="opset1">
			<data element_type="i64" shape="4" offset="0" size="32" />
			<output>
				<port id="0" precision="I64">
					<dim>4</dim>
				</port>
			</output>
		</layer>
		<layer id="2" name="input_4/Transpose([0 3 1 2])" type="Transpose" version="opset1">
			<input>
				<port id="0" precision="FP32">
					<dim>1</dim>
					<dim>224</dim>
					<dim>299</dim>
					<dim>3</dim>
				</port>
				<port id="1" precision="I64">
					<dim>4</dim>
				</port>
			</input>
			<output>
				<port id="2" precision="FP32">
					<dim>1</dim>
					<dim>3</dim>
					<dim>224</dim>
					<dim>299</dim>
				</port>
			</output>
		</layer>
		<layer id="3" name="StatefulPartitionedCall/feature_extractor/tf.math.truediv_1/truediv/y" type="Const" version="opset1">
			<data element_type="f32" shape="1, 1, 1, 1" offset="32" size="4" />
			<output>
				<port id="0" precision="FP32" names="StatefulPartitionedCall/feature_extractor/tf.math.truediv_1/truediv/y:0">
					<dim>1</dim>
					<dim>1</dim>
					<dim>1</dim>
					<dim>1</dim>
				</port>
			</output>
		</layer>
		<layer id="4" name="StatefulPartitionedCall/feature_extractor/tf.math.truediv_1/truediv" type="Multiply" version="opset1">
			<data auto_broadcast="numpy" />
			<input>
				<port id="0" precision="FP32">
					<dim>1</dim>
					<dim>3</dim>
					<dim>224</dim>
					<dim>299</dim>
				</port>
				<port id="1" precision="FP32">
					<dim>1</dim>
					<dim>1</dim>
					<dim>1</dim>
					<dim>1</dim>
				</port>
			</input>
			<output>
				<port id="2" precision="FP32" names="StatefulPartitionedCall/feature_extractor/tf.math.truediv_1/truediv:0">
					<dim>1</dim>
					<dim>3</dim>
					<dim>224</dim>
					<dim>299</dim>
				</port>
			</output>
		</layer>
		<layer id="5" name="StatefulPartitionedCall/feature_extractor/tf.math.subtract_1/Sub/y" type="Const" version="opset1">
			<data element_type="f32" shape="1, 1, 1, 1" offset="36" size="4" />
			<output>
				<port id="0" precision="FP32" names="StatefulPartitionedCall/feature_extractor/tf.math.subtract_1/Sub/y:0">
					<dim>1</dim>
					<dim>1</dim>
					<dim>1</dim>
					<dim>1</dim>
				</port>
			</output>
		</layer>
		<layer id="6" name="StatefulPartitionedCall/feature_extractor/tf.math.subtract_1/Sub" type="Add" version="opset1">
			<data auto_broadcast="numpy" />
			<input>
				<port id="0" precision="FP32">
					<dim>1</dim>
					<dim>3</dim>
					<dim>224</dim>
					<dim>299</dim>
				</port>
				<port id="1" precision="FP32">
					<dim>1</dim>
					<dim>1</dim>
					<dim>1</dim>
					<dim>1</dim>
				</port>
			</input>
			<output>
				<port id="2" precision="FP32" names="StatefulPartitionedCall/feature_extractor/tf.math.subtract_1/Sub:0">
					<dim>1</dim>
					<dim>3</dim>
					<dim>224</dim>
					<dim>299</dim>
				</port>
			</output>
		</layer>
		<layer id="7" name="StatefulPartitionedCall/feature_extractor/inception_v3/batch_normalization_94/FusedBatchNormV3/mean/Fused_Mul__copy" type="Const" version="opset1">
			<data element_type="f32" shape="32, 3, 3, 3" offset="40" size="3456" />
			<output>
				<port id="0" precision="FP32" names="StatefulPartitionedCall/feature_extractor/inception_v3/conv2d_94/Conv2D/ReadVariableOp:0">
					<dim>32</dim>
					<dim>3</dim>
					<dim>3</dim>
					<dim>3</dim>
				</port>
			</output>
		</layer>
		<layer id="8" name="StatefulPartitionedCall/feature_extractor/inception_v3/conv2d_94/Conv2D" type="Convolution" version="opset1">
			<data strides="2, 2" dilations="1, 1" pads_begin="0, 0" pads_end="0, 0" auto_pad="valid" />
			<input>
				<port id="0" precision="FP32">
					<dim>1</dim>
					<dim>3</dim>
					<dim>224</dim>
					<dim>299</dim>
				</port>
				<port id="1" precision="FP32">
					<dim>32</dim>
					<dim>3</dim>
					<dim>3</dim>
					<dim>3</dim>
				</port>
			</input>
			<output>
				<port id="2" precision="FP32">
					<dim>1</dim>
					<dim>32</dim>
					<dim>111</dim>
					<dim>149</dim>
				</port>
			</output>
		</layer>
		<layer id="9" name="data_add_17700" type="Const" version="opset1">
			<data element_type="f32" shape="1, 32, 1, 1" offset="3496" size="128" />
			<output>
				<port id="0" precision="FP32">
					<dim>1</dim>
					<dim>32</dim>
					<dim>1</dim>
					<dim>1</dim>
				</port>
			</output>
		</layer>
		<layer id="10" name="StatefulPartitionedCall/feature_extractor/inception_v3/batch_normalization_94/FusedBatchNormV3/variance/Fused_Add_" type="Add" version="opset1">
			<data auto_broadcast="numpy" />
			<input>
				<port id="0" precision="FP32">
					<dim>1</dim>
					<dim>32</dim>
					<dim>111</dim>
					<dim>149</dim>
				</port>
				<port id="1" precision="FP32">
					<dim>1</dim>
					<dim>32</dim>
					<dim>1</dim>
					<dim>1</dim>
				</port>
			</input>
			<output>
				<port id="2" precision="FP32" names="StatefulPartitionedCall/feature_extractor/inception_v3/batch_normalization_94/FusedBatchNormV3:0">
					<dim>1</dim>
					<dim>32</dim>
					<dim>111</dim>
					<dim>149</dim>
				</port>
			</output>
		</layer>
		<layer id="11" name="StatefulPartitionedCall/feature_extractor/inception_v3/activation_94/Relu" type="ReLU" version="opset1">
			<input>
				<port id="0" precision="FP32">
					<dim>1</dim>
					<dim>32</dim>
					<dim>111</dim>
					<dim>149</dim>
				</port>
			</input>
			<output>
				<port id="1" precision="FP32" names="StatefulPartitionedCall/feature_extractor/inception_v3/activation_94/Relu:0">
					<dim>1</dim>
					<dim>32</dim>
					<dim>111</dim>
					<dim>149</dim>
				</port>
			</output>
		</layer>
		<layer id="12" name="StatefulPartitionedCall/feature_extractor/inception_v3/batch_normalization_95/FusedBatchNormV3/mean/Fused_Mul__copy" type="Const" version="opset1">
			<data element_type="f32" shape="32, 32, 3, 3" offset="3624" size="36864" />
			<output>
				<port id="0" precision="FP32" names="StatefulPartitionedCall/feature_extractor/inception_v3/conv2d_95/Conv2D/ReadVariableOp:0">
					<dim>32</dim>
					<dim>32</dim>
					<dim>3</dim>
					<dim>3</dim>
				</port>
			</output>
		</layer>
		<layer id="13" name="StatefulPartitionedCall/feature_extractor/inception_v3/conv2d_95/Conv2D" type="Convolution" version="opset1">
			<data strides="1, 1" dilations="1, 1" pads_begin="0, 0" pads_end="0, 0" auto_pad="valid" />
			<input>
				<port id="0" precision="FP32">
					<dim>1</dim>
					<dim>32</dim>
					<dim>111</dim>
					<dim>149</dim>
				</port>
				<port id="1" precision="FP32">
					<dim>32</dim>
					<dim>32</dim>
					<dim>3</dim>
					<dim>3</dim>
				</port>
			</input>
			<output>
				<port id="2" precision="FP32">
					<dim>1</dim>
					<dim>32</dim>
					<dim>109</dim>
					<dim>147</dim>
				</port>
			</output>
		</layer>
		<layer id="14" name="data_add_1770317708" type="Const" version="opset1">
			<data element_type="f32" shape="1, 32, 1, 1" offset="40488" size="128" />
			<output>
				<port id="0" precision="FP32">
					<dim>1</dim>
					<dim>32</dim>
					<dim>1</dim>
					<dim>1</dim>
				</port>
			</output>
		</layer>
		<layer id="15" name="StatefulPartitionedCall/feature_extractor/inception_v3/batch_normalization_95/FusedBatchNormV3/variance/Fused_Add_" type="Add" version="opset1">
			<data auto_broadcast="numpy" />
			<input>
				<port id="0" precision="FP32">
					<dim>1</dim>
					<dim>32</dim>
					<dim>109</dim>
					<dim>147</dim>
				</port>
				<port id="1" precision="FP32">
					<dim>1</dim>
					<dim>32</dim>
					<dim>1</dim>
					<dim>1</dim>
				</port>
			</input>
			<output>
				<port id="2" precision="FP32" names="StatefulPartitionedCall/feature_extractor/inception_v3/batch_normalization_95/FusedBatchNormV3:0">
					<dim>1</dim>
					<dim>32</dim>
					<dim>109</dim>
					<dim>147</dim>
				</port>
			</output>
		</layer>
		<layer id="16" name="StatefulPartitionedCall/feature_extractor/inception_v3/activation_95/Relu" type="ReLU" version="opset1">
			<input>
				<port id="0" precision="FP32">
					<dim>1</dim>
					<dim>32</dim>
					<dim>109</dim>
					<dim>147</dim>
				</port>
			</input>
			<output>
				<port id="1" precision="FP32" names="StatefulPartitionedCall/feature_extractor/inception_v3/activation_95/Relu:0">
					<dim>1</dim>
					<dim>32</dim>
					<dim>109</dim>
					<dim>147</dim>
				</port>
			</output>
		</layer>
		<layer id="17" name="StatefulPartitionedCall/feature_extractor/inception_v3/batch_normalization_96/FusedBatchNormV3/mean/Fused_Mul__copy" type="Const" version="opset1">
			<data element_type="f32" shape="64, 32, 3, 3" offset="40616" size="73728" />
			<output>
				<port id="0" precision="FP32" names="StatefulPartitionedCall/feature_extractor/inception_v3/conv2d_96/Conv2D/ReadVariableOp:0">
					<dim>64</dim>
					<dim>32</dim>
					<dim>3</dim>
					<dim>3</dim>
				</port>
			</output>
		</layer>
		<layer id="18" name="StatefulPartitionedCall/feature_extractor/inception_v3/conv2d_96/Conv2D" type="Convolution" version="opset1">
			<data strides="1, 1" dilations="1, 1" pads_begin="0, 0" pads_end="0, 0" auto_pad="same_upper" />
			<input>
				<port id="0" precision="FP32">
					<dim>1</dim>
					<dim>32</dim>
					<dim>109</dim>
					<dim>147</dim>
				</port>
				<port id="1" precision="FP32">
					<dim>64</dim>
					<dim>32</dim>
					<dim>3</dim>
					<dim>3</dim>
				</port>
			</input>
			<output>
				<port id="2" precision="FP32">
					<dim>1</dim>
					<dim>64</dim>
					<dim>109</dim>
					<dim>147</dim>
				</port>
			</output>
		</layer>
		<layer id="19" name="data_add_1771117716" type="Const" version="opset1">
			<data element_type="f32" shape="1, 64, 1, 1" offset="114344" size="256" />
			<output>
				<port id="0" precision="FP32">
					<dim>1</dim>
					<dim>64</dim>
					<dim>1</dim>
					<dim>1</dim>
				</port>
			</output>
		</layer>
		<layer id="20" name="StatefulPartitionedCall/feature_extractor/inception_v3/batch_normalization_96/FusedBatchNormV3/variance/Fused_Add_" type="Add" version="opset1">
			<data auto_broadcast="numpy" />
			<input>
				<port id="0" precision="FP32">
					<dim>1</dim>
					<dim>64</dim>
					<dim>109</dim>
					<dim>147</dim>
				</port>
				<port id="1" precision="FP32">
					<dim>1</dim>
					<dim>64</dim>
					<dim>1</dim>
					<dim>1</dim>
				</port>
			</input>
			<output>
				<port id="2" precision="FP32" names="StatefulPartitionedCall/feature_extractor/inception_v3/batch_normalization_96/FusedBatchNormV3:0">
					<dim>1</dim>
					<dim>64</dim>
					<dim>109</dim>
					<dim>147</dim>
				</port>
			</output>
		</layer>
		<layer id="21" name="StatefulPartitionedCall/feature_extractor/inception_v3/activation_96/Relu" type="ReLU" version="opset1">
			<input>
				<port id="0" precision="FP32">
					<dim>1</dim>
					<dim>64</dim>
					<dim>109</dim>
					<dim>147</dim>
				</port>
			</input>
			<output>
				<port id="1" precision="FP32" names="StatefulPartitionedCall/feature_extractor/inception_v3/activation_96/Relu:0">
					<dim>1</dim>
					<dim>64</dim>
					<dim>109</dim>
					<dim>147</dim>
				</port>
			</output>
		</layer>
		<layer id="22" name="StatefulPartitionedCall/feature_extractor/inception_v3/max_pooling2d_4/MaxPool" type="MaxPool" version="opset8">
			<data strides="2, 2" dilations="1, 1" pads_begin="0, 0" pads_end="0, 0" kernel="3, 3" rounding_type="floor" auto_pad="valid" index_element_type="i64" axis="0" />
			<input>
				<port id="0" precision="FP32">
					<dim>1</dim>
					<dim>64</dim>
					<dim>109</dim>
					<dim>147</dim>
				</port>
			</input>
			<output>
				<port id="1" precision="FP32" names="StatefulPartitionedCall/feature_extractor/inception_v3/max_pooling2d_4/MaxPool:0">
					<dim>1</dim>
					<dim>64</dim>
					<dim>54</dim>
					<dim>73</dim>
				</port>
				<port id="2" precision="I64">
					<dim>1</dim>
					<dim>64</dim>
					<dim>54</dim>
					<dim>73</dim>
				</port>
			</output>
		</layer>
		<layer id="23" name="StatefulPartitionedCall/feature_extractor/inception_v3/batch_normalization_97/FusedBatchNormV3/mean/Fused_Mul__copy" type="Const" version="opset1">
			<data element_type="f32" shape="80, 64, 1, 1" offset="114600" size="20480" />
			<output>
				<port id="0" precision="FP32" names="StatefulPartitionedCall/feature_extractor/inception_v3/conv2d_97/Conv2D/ReadVariableOp:0">
					<dim>80</dim>
					<dim>64</dim>
					<dim>1</dim>
					<dim>1</dim>
				</port>
			</output>
		</layer>
		<layer id="24" name="StatefulPartitionedCall/feature_extractor/inception_v3/conv2d_97/Conv2D" type="Convolution" version="opset1">
			<data strides="1, 1" dilations="1, 1" pads_begin="0, 0" pads_end="0, 0" auto_pad="valid" />
			<input>
				<port id="0" precision="FP32">
					<dim>1</dim>
					<dim>64</dim>
					<dim>54</dim>
					<dim>73</dim>
				</port>
				<port id="1" precision="FP32">
					<dim>80</dim>
					<dim>64</dim>
					<dim>1</dim>
					<dim>1</dim>
				</port>
			</input>
			<output>
				<port id="2" precision="FP32">
					<dim>1</dim>
					<dim>80</dim>
					<dim>54</dim>
					<dim>73</dim>
				</port>
			</output>
		</layer>
		<layer id="25" name="data_add_1771917724" type="Const" version="opset1">
			<data element_type="f32" shape="1, 80, 1, 1" offset="135080" size="320" />
			<output>
				<port id="0" precision="FP32">
					<dim>1</dim>
					<dim>80</dim>
					<dim>1</dim>
					<dim>1</dim>
				</port>
			</output>
		</layer>
		<layer id="26" name="StatefulPartitionedCall/feature_extractor/inception_v3/batch_normalization_97/FusedBatchNormV3/variance/Fused_Add_" type="Add" version="opset1">
			<data auto_broadcast="numpy" />
			<input>
				<port id="0" precision="FP32">
					<dim>1</dim>
					<dim>80</dim>
					<dim>54</dim>
					<dim>73</dim>
				</port>
				<port id="1" precision="FP32">
					<dim>1</dim>
					<dim>80</dim>
					<dim>1</dim>
					<dim>1</dim>
				</port>
			</input>
			<output>
				<port id="2" precision="FP32" names="StatefulPartitionedCall/feature_extractor/inception_v3/batch_normalization_97/FusedBatchNormV3:0">
					<dim>1</dim>
					<dim>80</dim>
					<dim>54</dim>
					<dim>73</dim>
				</port>
			</output>
		</layer>
		<layer id="27" name="StatefulPartitionedCall/feature_extractor/inception_v3/activation_97/Relu" type="ReLU" version="opset1">
			<input>
				<port id="0" precision="FP32">
					<dim>1</dim>
					<dim>80</dim>
					<dim>54</dim>
					<dim>73</dim>
				</port>
			</input>
			<output>
				<port id="1" precision="FP32" names="StatefulPartitionedCall/feature_extractor/inception_v3/activation_97/Relu:0">
					<dim>1</dim>
					<dim>80</dim>
					<dim>54</dim>
					<dim>73</dim>
				</port>
			</output>
		</layer>
		<layer id="28" name="StatefulPartitionedCall/feature_extractor/inception_v3/batch_normalization_98/FusedBatchNormV3/mean/Fused_Mul__copy" type="Const" version="opset1">
			<data element_type="f32" shape="192, 80, 3, 3" offset="135400" size="552960" />
			<output>
				<port id="0" precision="FP32" names="StatefulPartitionedCall/feature_extractor/inception_v3/conv2d_98/Conv2D/ReadVariableOp:0">
					<dim>192</dim>
					<dim>80</dim>
					<dim>3</dim>
					<dim>3</dim>
				</port>
			</output>
		</layer>
		<layer id="29" name="StatefulPartitionedCall/feature_extractor/inception_v3/conv2d_98/Conv2D" type="Convolution" version="opset1">
			<data strides="1, 1" dilations="1, 1" pads_begin="0, 0" pads_end="0, 0" auto_pad="valid" />
			<input>
				<port id="0" precision="FP32">
					<dim>1</dim>
					<dim>80</dim>
					<dim>54</dim>
					<dim>73</dim>
				</port>
				<port id="1" precision="FP32">
					<dim>192</dim>
					<dim>80</dim>
					<dim>3</dim>
					<dim>3</dim>
				</port>
			</input>
			<output>
				<port id="2" precision="FP32">
					<dim>1</dim>
					<dim>192</dim>
					<dim>52</dim>
					<dim>71</dim>
				</port>
			</output>
		</layer>
		<layer id="30" name="data_add_1772717732" type="Const" version="opset1">
			<data element_type="f32" shape="1, 192, 1, 1" offset="688360" size="768" />
			<output>
				<port id="0" precision="FP32">
					<dim>1</dim>
					<dim>192</dim>
					<dim>1</dim>
					<dim>1</dim>
				</port>
			</output>
		</layer>
		<layer id="31" name="StatefulPartitionedCall/feature_extractor/inception_v3/batch_normalization_98/FusedBatchNormV3/variance/Fused_Add_" type="Add" version="opset1">
			<data auto_broadcast="numpy" />
			<input>
				<port id="0" precision="FP32">
					<dim>1</dim>
					<dim>192</dim>
					<dim>52</dim>
					<dim>71</dim>
				</port>
				<port id="1" precision="FP32">
					<dim>1</dim>
					<dim>192</dim>
					<dim>1</dim>
					<dim>1</dim>
				</port>
			</input>
			<output>
				<port id="2" precision="FP32" names="StatefulPartitionedCall/feature_extractor/inception_v3/batch_normalization_98/FusedBatchNormV3:0">
					<dim>1</dim>
					<dim>192</dim>
					<dim>52</dim>
					<dim>71</dim>
				</port>
			</output>
		</layer>
		<layer id="32" name="StatefulPartitionedCall/feature_extractor/inception_v3/activation_98/Relu" type="ReLU" version="opset1">
			<input>
				<port id="0" precision="FP32">
					<dim>1</dim>
					<dim>192</dim>
					<dim>52</dim>
					<dim>71</dim>
				</port>
			</input>
			<output>
				<port id="1" precision="FP32" names="StatefulPartitionedCall/feature_extractor/inception_v3/activation_98/Relu:0">
					<dim>1</dim>
					<dim>192</dim>
					<dim>52</dim>
					<dim>71</dim>
				</port>
			</output>
		</layer>
		<layer id="33" name="StatefulPartitionedCall/feature_extractor/inception_v3/max_pooling2d_5/MaxPool" type="MaxPool" version="opset8">
			<data strides="2, 2" dilations="1, 1" pads_begin="0, 0" pads_end="0, 0" kernel="3, 3" rounding_type="floor" auto_pad="valid" index_element_type="i64" axis="0" />
			<input>
				<port id="0" precision="FP32">
					<dim>1</dim>
					<dim>192</dim>
					<dim>52</dim>
					<dim>71</dim>
				</port>
			</input>
			<output>
				<port id="1" precision="FP32" names="StatefulPartitionedCall/feature_extractor/inception_v3/max_pooling2d_5/MaxPool:0">
					<dim>1</dim>
					<dim>192</dim>
					<dim>25</dim>
					<dim>35</dim>
				</port>
				<port id="2" precision="I64">
					<dim>1</dim>
					<dim>192</dim>
					<dim>25</dim>
					<dim>35</dim>
				</port>
			</output>
		</layer>
		<layer id="34" name="StatefulPartitionedCall/feature_extractor/inception_v3/batch_normalization_99/FusedBatchNormV3/mean/Fused_Mul__copy" type="Const" version="opset1">
			<data element_type="f32" shape="64, 192, 1, 1" offset="689128" size="49152" />
			<output>
				<port id="0" precision="FP32" names="StatefulPartitionedCall/feature_extractor/inception_v3/conv2d_99/Conv2D/ReadVariableOp:0">
					<dim>64</dim>
					<dim>192</dim>
					<dim>1</dim>
					<dim>1</dim>
				</port>
			</output>
		</layer>
		<layer id="35" name="StatefulPartitionedCall/feature_extractor/inception_v3/conv2d_99/Conv2D" type="Convolution" version="opset1">
			<data strides="1, 1" dilations="1, 1" pads_begin="0, 0" pads_end="0, 0" auto_pad="same_upper" />
			<input>
				<port id="0" precision="FP32">
					<dim>1</dim>
					<dim>192</dim>
					<dim>25</dim>
					<dim>35</dim>
				</port>
				<port id="1" precision="FP32">
					<dim>64</dim>
					<dim>192</dim>
					<dim>1</dim>
					<dim>1</dim>
				</port>
			</input>
			<output>
				<port id="2" precision="FP32">
					<dim>1</dim>
					<dim>64</dim>
					<dim>25</dim>
					<dim>35</dim>
				</port>
			</output>
		</layer>
		<layer id="36" name="data_add_1778317788" type="Const" version="opset1">
			<data element_type="f32" shape="1, 64, 1, 1" offset="738280" size="256" />
			<output>
				<port id="0" precision="FP32">
					<dim>1</dim>
					<dim>64</dim>
					<dim>1</dim>
					<dim>1</dim>
				</port>
			</output>
		</layer>
		<layer id="37" name="StatefulPartitionedCall/feature_extractor/inception_v3/batch_normalization_99/FusedBatchNormV3/variance/Fused_Add_" type="Add" version="opset1">
			<data auto_broadcast="numpy" />
			<input>
				<port id="0" precision="FP32">
					<dim>1</dim>
					<dim>64</dim>
					<dim>25</dim>
					<dim>35</dim>
				</port>
				<port id="1" precision="FP32">
					<dim>1</dim>
					<dim>64</dim>
					<dim>1</dim>
					<dim>1</dim>
				</port>
			</input>
			<output>
				<port id="2" precision="FP32" names="StatefulPartitionedCall/feature_extractor/inception_v3/batch_normalization_99/FusedBatchNormV3:0">
					<dim>1</dim>
					<dim>64</dim>
					<dim>25</dim>
					<dim>35</dim>
				</port>
			</output>
		</layer>
		<layer id="38" name="StatefulPartitionedCall/feature_extractor/inception_v3/activation_99/Relu" type="ReLU" version="opset1">
			<input>
				<port id="0" precision="FP32">
					<dim>1</dim>
					<dim>64</dim>
					<dim>25</dim>
					<dim>35</dim>
				</port>
			</input>
			<output>
				<port id="1" precision="FP32" names="StatefulPartitionedCall/feature_extractor/inception_v3/activation_99/Relu:0">
					<dim>1</dim>
					<dim>64</dim>
					<dim>25</dim>
					<dim>35</dim>
				</port>
			</output>
		</layer>
		<layer id="39" name="StatefulPartitionedCall/feature_extractor/inception_v3/batch_normalization_100/FusedBatchNormV3/mean/Fused_Mul__copy" type="Const" version="opset1">
			<data element_type="f32" shape="48, 192, 1, 1" offset="738536" size="36864" />
			<output>
				<port id="0" precision="FP32" names="StatefulPartitionedCall/feature_extractor/inception_v3/conv2d_100/Conv2D/ReadVariableOp:0">
					<dim>48</dim>
					<dim>192</dim>
					<dim>1</dim>
					<dim>1</dim>
				</port>
			</output>
		</layer>
		<layer id="40" name="StatefulPartitionedCall/feature_extractor/inception_v3/conv2d_100/Conv2D" type="Convolution" version="opset1">
			<data strides="1, 1" dilations="1, 1" pads_begin="0, 0" pads_end="0, 0" auto_pad="same_upper" />
			<input>
				<port id="0" precision="FP32">
					<dim>1</dim>
					<dim>192</dim>
					<dim>25</dim>
					<dim>35</dim>
				</port>
				<port id="1" precision="FP32">
					<dim>48</dim>
					<dim>192</dim>
					<dim>1</dim>
					<dim>1</dim>
				</port>
			</input>
			<output>
				<port id="2" precision="FP32">
					<dim>1</dim>
					<dim>48</dim>
					<dim>25</dim>
					<dim>35</dim>
				</port>
			</output>
		</layer>
		<layer id="41" name="data_add_1776717772" type="Const" version="opset1">
			<data element_type="f32" shape="1, 48, 1, 1" offset="775400" size="192" />
			<output>
				<port id="0" precision="FP32">
					<dim>1</dim>
					<dim>48</dim>
					<dim>1</dim>
					<dim>1</dim>
				</port>
			</output>
		</layer>
		<layer id="42" name="StatefulPartitionedCall/feature_extractor/inception_v3/batch_normalization_100/FusedBatchNormV3/variance/Fused_Add_" type="Add" version="opset1">
			<data auto_broadcast="numpy" />
			<input>
				<port id="0" precision="FP32">
					<dim>1</dim>
					<dim>48</dim>
					<dim>25</dim>
					<dim>35</dim>
				</port>
				<port id="1" precision="FP32">
					<dim>1</dim>
					<dim>48</dim>
					<dim>1</dim>
					<dim>1</dim>
				</port>
			</input>
			<output>
				<port id="2" precision="FP32" names="StatefulPartitionedCall/feature_extractor/inception_v3/batch_normalization_100/FusedBatchNormV3:0">
					<dim>1</dim>
					<dim>48</dim>
					<dim>25</dim>
					<dim>35</dim>
				</port>
			</output>
		</layer>
		<layer id="43" name="StatefulPartitionedCall/feature_extractor/inception_v3/activation_100/Relu" type="ReLU" version="opset1">
			<input>
				<port id="0" precision="FP32">
					<dim>1</dim>
					<dim>48</dim>
					<dim>25</dim>
					<dim>35</dim>
				</port>
			</input>
			<output>
				<port id="1" precision="FP32" names="StatefulPartitionedCall/feature_extractor/inception_v3/activation_100/Relu:0">
					<dim>1</dim>
					<dim>48</dim>
					<dim>25</dim>
					<dim>35</dim>
				</port>
			</output>
		</layer>
		<layer id="44" name="StatefulPartitionedCall/feature_extractor/inception_v3/batch_normalization_101/FusedBatchNormV3/mean/Fused_Mul__copy" type="Const" version="opset1">
			<data element_type="f32" shape="64, 48, 5, 5" offset="775592" size="307200" />
			<output>
				<port id="0" precision="FP32" names="StatefulPartitionedCall/feature_extractor/inception_v3/conv2d_101/Conv2D/ReadVariableOp:0">
					<dim>64</dim>
					<dim>48</dim>
					<dim>5</dim>
					<dim>5</dim>
				</port>
			</output>
		</layer>
		<layer id="45" name="StatefulPartitionedCall/feature_extractor/inception_v3/conv2d_101/Conv2D" type="Convolution" version="opset1">
			<data strides="1, 1" dilations="1, 1" pads_begin="0, 0" pads_end="0, 0" auto_pad="same_upper" />
			<input>
				<port id="0" precision="FP32">
					<dim>1</dim>
					<dim>48</dim>
					<dim>25</dim>
					<dim>35</dim>
				</port>
				<port id="1" precision="FP32">
					<dim>64</dim>
					<dim>48</dim>
					<dim>5</dim>
					<dim>5</dim>
				</port>
			</input>
			<output>
				<port id="2" precision="FP32">
					<dim>1</dim>
					<dim>64</dim>
					<dim>25</dim>
					<dim>35</dim>
				</port>
			</output>
		</layer>
		<layer id="46" name="data_add_1777517780" type="Const" version="opset1">
			<data element_type="f32" shape="1, 64, 1, 1" offset="1082792" size="256" />
			<output>
				<port id="0" precision="FP32">
					<dim>1</dim>
					<dim>64</dim>
					<dim>1</dim>
					<dim>1</dim>
				</port>
			</output>
		</layer>
		<layer id="47" name="StatefulPartitionedCall/feature_extractor/inception_v3/batch_normalization_101/FusedBatchNormV3/variance/Fused_Add_" type="Add" version="opset1">
			<data auto_broadcast="numpy" />
			<input>
				<port id="0" precision="FP32">
					<dim>1</dim>
					<dim>64</dim>
					<dim>25</dim>
					<dim>35</dim>
				</port>
				<port id="1" precision="FP32">
					<dim>1</dim>
					<dim>64</dim>
					<dim>1</dim>
					<dim>1</dim>
				</port>
			</input>
			<output>
				<port id="2" precision="FP32" names="StatefulPartitionedCall/feature_extractor/inception_v3/batch_normalization_101/FusedBatchNormV3:0">
					<dim>1</dim>
					<dim>64</dim>
					<dim>25</dim>
					<dim>35</dim>
				</port>
			</output>
		</layer>
		<layer id="48" name="StatefulPartitionedCall/feature_extractor/inception_v3/activation_101/Relu" type="ReLU" version="opset1">
			<input>
				<port id="0" precision="FP32">
					<dim>1</dim>
					<dim>64</dim>
					<dim>25</dim>
					<dim>35</dim>
				</port>
			</input>
			<output>
				<port id="1" precision="FP32" names="StatefulPartitionedCall/feature_extractor/inception_v3/activation_101/Relu:0">
					<dim>1</dim>
					<dim>64</dim>
					<dim>25</dim>
					<dim>35</dim>
				</port>
			</output>
		</layer>
		<layer id="49" name="StatefulPartitionedCall/feature_extractor/inception_v3/batch_normalization_102/FusedBatchNormV3/mean/Fused_Mul__copy" type="Const" version="opset1">
			<data element_type="f32" shape="64, 192, 1, 1" offset="1083048" size="49152" />
			<output>
				<port id="0" precision="FP32" names="StatefulPartitionedCall/feature_extractor/inception_v3/conv2d_102/Conv2D/ReadVariableOp:0">
					<dim>64</dim>
					<dim>192</dim>
					<dim>1</dim>
					<dim>1</dim>
				</port>
			</output>
		</layer>
		<layer id="50" name="StatefulPartitionedCall/feature_extractor/inception_v3/conv2d_102/Conv2D" type="Convolution" version="opset1">
			<data strides="1, 1" dilations="1, 1" pads_begin="0, 0" pads_end="0, 0" auto_pad="same_upper" />
			<input>
				<port id="0" precision="FP32">
					<dim>1</dim>
					<dim>192</dim>
					<dim>25</dim>
					<dim>35</dim>
				</port>
				<port id="1" precision="FP32">
					<dim>64</dim>
					<dim>192</dim>
					<dim>1</dim>
					<dim>1</dim>
				</port>
			</input>
			<output>
				<port id="2" precision="FP32">
					<dim>1</dim>
					<dim>64</dim>
					<dim>25</dim>
					<dim>35</dim>
				</port>
			</output>
		</layer>
		<layer id="51" name="data_add_1774317748" type="Const" version="opset1">
			<data element_type="f32" shape="1, 64, 1, 1" offset="1132200" size="256" />
			<output>
				<port id="0" precision="FP32">
					<dim>1</dim>
					<dim>64</dim>
					<dim>1</dim>
					<dim>1</dim>
				</port>
			</output>
		</layer>
		<layer id="52" name="StatefulPartitionedCall/feature_extractor/inception_v3/batch_normalization_102/FusedBatchNormV3/variance/Fused_Add_" type="Add" version="opset1">
			<data auto_broadcast="numpy" />
			<input>
				<port id="0" precision="FP32">
					<dim>1</dim>
					<dim>64</dim>
					<dim>25</dim>
					<dim>35</dim>
				</port>
				<port id="1" precision="FP32">
					<dim>1</dim>
					<dim>64</dim>
					<dim>1</dim>
					<dim>1</dim>
				</port>
			</input>
			<output>
				<port id="2" precision="FP32" names="StatefulPartitionedCall/feature_extractor/inception_v3/batch_normalization_102/FusedBatchNormV3:0">
					<dim>1</dim>
					<dim>64</dim>
					<dim>25</dim>
					<dim>35</dim>
				</port>
			</output>
		</layer>
		<layer id="53" name="StatefulPartitionedCall/feature_extractor/inception_v3/activation_102/Relu" type="ReLU" version="opset1">
			<input>
				<port id="0" precision="FP32">
					<dim>1</dim>
					<dim>64</dim>
					<dim>25</dim>
					<dim>35</dim>
				</port>
			</input>
			<output>
				<port id="1" precision="FP32" names="StatefulPartitionedCall/feature_extractor/inception_v3/activation_102/Relu:0">
					<dim>1</dim>
					<dim>64</dim>
					<dim>25</dim>
					<dim>35</dim>
				</port>
			</output>
		</layer>
		<layer id="54" name="StatefulPartitionedCall/feature_extractor/inception_v3/batch_normalization_103/FusedBatchNormV3/mean/Fused_Mul__copy" type="Const" version="opset1">
			<data element_type="f32" shape="96, 64, 3, 3" offset="1132456" size="221184" />
			<output>
				<port id="0" precision="FP32" names="StatefulPartitionedCall/feature_extractor/inception_v3/conv2d_103/Conv2D/ReadVariableOp:0">
					<dim>96</dim>
					<dim>64</dim>
					<dim>3</dim>
					<dim>3</dim>
				</port>
			</output>
		</layer>
		<layer id="55" name="StatefulPartitionedCall/feature_extractor/inception_v3/conv2d_103/Conv2D" type="Convolution" version="opset1">
			<data strides="1, 1" dilations="1, 1" pads_begin="0, 0" pads_end="0, 0" auto_pad="same_upper" />
			<input>
				<port id="0" precision="FP32">
					<dim>1</dim>
					<dim>64</dim>
					<dim>25</dim>
					<dim>35</dim>
				</port>
				<port id="1" precision="FP32">
					<dim>96</dim>
					<dim>64</dim>
					<dim>3</dim>
					<dim>3</dim>
				</port>
			</input>
			<output>
				<port id="2" precision="FP32">
					<dim>1</dim>
					<dim>96</dim>
					<dim>25</dim>
					<dim>35</dim>
				</port>
			</output>
		</layer>
		<layer id="56" name="data_add_1775117756" type="Const" version="opset1">
			<data element_type="f32" shape="1, 96, 1, 1" offset="1353640" size="384" />
			<output>
				<port id="0" precision="FP32">
					<dim>1</dim>
					<dim>96</dim>
					<dim>1</dim>
					<dim>1</dim>
				</port>
			</output>
		</layer>
		<layer id="57" name="StatefulPartitionedCall/feature_extractor/inception_v3/batch_normalization_103/FusedBatchNormV3/variance/Fused_Add_" type="Add" version="opset1">
			<data auto_broadcast="numpy" />
			<input>
				<port id="0" precision="FP32">
					<dim>1</dim>
					<dim>96</dim>
					<dim>25</dim>
					<dim>35</dim>
				</port>
				<port id="1" precision="FP32">
					<dim>1</dim>
					<dim>96</dim>
					<dim>1</dim>
					<dim>1</dim>
				</port>
			</input>
			<output>
				<port id="2" precision="FP32" names="StatefulPartitionedCall/feature_extractor/inception_v3/batch_normalization_103/FusedBatchNormV3:0">
					<dim>1</dim>
					<dim>96</dim>
					<dim>25</dim>
					<dim>35</dim>
				</port>
			</output>
		</layer>
		<layer id="58" name="StatefulPartitionedCall/feature_extractor/inception_v3/activation_103/Relu" type="ReLU" version="opset1">
			<input>
				<port id="0" precision="FP32">
					<dim>1</dim>
					<dim>96</dim>
					<dim>25</dim>
					<dim>35</dim>
				</port>
			</input>
			<output>
				<port id="1" precision="FP32" names="StatefulPartitionedCall/feature_extractor/inception_v3/activation_103/Relu:0">
					<dim>1</dim>
					<dim>96</dim>
					<dim>25</dim>
					<dim>35</dim>
				</port>
			</output>
		</layer>
		<layer id="59" name="StatefulPartitionedCall/feature_extractor/inception_v3/batch_normalization_104/FusedBatchNormV3/mean/Fused_Mul__copy" type="Const" version="opset1">
			<data element_type="f32" shape="96, 96, 3, 3" offset="1354024" size="331776" />
			<output>
				<port id="0" precision="FP32" names="StatefulPartitionedCall/feature_extractor/inception_v3/conv2d_104/Conv2D/ReadVariableOp:0">
					<dim>96</dim>
					<dim>96</dim>
					<dim>3</dim>
					<dim>3</dim>
				</port>
			</output>
		</layer>
		<layer id="60" name="StatefulPartitionedCall/feature_extractor/inception_v3/conv2d_104/Conv2D" type="Convolution" version="opset1">
			<data strides="1, 1" dilations="1, 1" pads_begin="0, 0" pads_end="0, 0" auto_pad="same_upper" />
			<input>
				<port id="0" precision="FP32">
					<dim>1</dim>
					<dim>96</dim>
					<dim>25</dim>
					<dim>35</dim>
				</port>
				<port id="1" precision="FP32">
					<dim>96</dim>
					<dim>96</dim>
					<dim>3</dim>
					<dim>3</dim>
				</port>
			</input>
			<output>
				<port id="2" precision="FP32">
					<dim>1</dim>
					<dim>96</dim>
					<dim>25</dim>
					<dim>35</dim>
				</port>
			</output>
		</layer>
		<layer id="61" name="data_add_1775917764" type="Const" version="opset1">
			<data element_type="f32" shape="1, 96, 1, 1" offset="1685800" size="384" />
			<output>
				<port id="0" precision="FP32">
					<dim>1</dim>
					<dim>96</dim>
					<dim>1</dim>
					<dim>1</dim>
				</port>
			</output>
		</layer>
		<layer id="62" name="StatefulPartitionedCall/feature_extractor/inception_v3/batch_normalization_104/FusedBatchNormV3/variance/Fused_Add_" type="Add" version="opset1">
			<data auto_broadcast="numpy" />
			<input>
				<port id="0" precision="FP32">
					<dim>1</dim>
					<dim>96</dim>
					<dim>25</dim>
					<dim>35</dim>
				</port>
				<port id="1" precision="FP32">
					<dim>1</dim>
					<dim>96</dim>
					<dim>1</dim>
					<dim>1</dim>
				</port>
			</input>
			<output>
				<port id="2" precision="FP32" names="StatefulPartitionedCall/feature_extractor/inception_v3/batch_normalization_104/FusedBatchNormV3:0">
					<dim>1</dim>
					<dim>96</dim>
					<dim>25</dim>
					<dim>35</dim>
				</port>
			</output>
		</layer>
		<layer id="63" name="StatefulPartitionedCall/feature_extractor/inception_v3/activation_104/Relu" type="ReLU" version="opset1">
			<input>
				<port id="0" precision="FP32">
					<dim>1</dim>
					<dim>96</dim>
					<dim>25</dim>
					<dim>35</dim>
				</port>
			</input>
			<output>
				<port id="1" precision="FP32" names="StatefulPartitionedCall/feature_extractor/inception_v3/activation_104/Relu:0">
					<dim>1</dim>
					<dim>96</dim>
					<dim>25</dim>
					<dim>35</dim>
				</port>
			</output>
		</layer>
		<layer id="64" name="StatefulPartitionedCall/feature_extractor/inception_v3/average_pooling2d_9/AvgPool" type="AvgPool" version="opset1">
			<data kernel="3, 3" strides="1, 1" pads_begin="0, 0" pads_end="0, 0" exclude-pad="true" auto_pad="same_upper" rounding_type="floor" />
			<input>
				<port id="0" precision="FP32">
					<dim>1</dim>
					<dim>192</dim>
					<dim>25</dim>
					<dim>35</dim>
				</port>
			</input>
			<output>
				<port id="1" precision="FP32" names="StatefulPartitionedCall/feature_extractor/inception_v3/average_pooling2d_9/AvgPool:0">
					<dim>1</dim>
					<dim>192</dim>
					<dim>25</dim>
					<dim>35</dim>
				</port>
			</output>
		</layer>
		<layer id="65" name="StatefulPartitionedCall/feature_extractor/inception_v3/batch_normalization_105/FusedBatchNormV3/mean/Fused_Mul__copy" type="Const" version="opset1">
			<data element_type="f32" shape="32, 192, 1, 1" offset="1686184" size="24576" />
			<output>
				<port id="0" precision="FP32" names="StatefulPartitionedCall/feature_extractor/inception_v3/conv2d_105/Conv2D/ReadVariableOp:0">
					<dim>32</dim>
					<dim>192</dim>
					<dim>1</dim>
					<dim>1</dim>
				</port>
			</output>
		</layer>
		<layer id="66" name="StatefulPartitionedCall/feature_extractor/inception_v3/conv2d_105/Conv2D" type="Convolution" version="opset1">
			<data strides="1, 1" dilations="1, 1" pads_begin="0, 0" pads_end="0, 0" auto_pad="same_upper" />
			<input>
				<port id="0" precision="FP32">
					<dim>1</dim>
					<dim>192</dim>
					<dim>25</dim>
					<dim>35</dim>
				</port>
				<port id="1" precision="FP32">
					<dim>32</dim>
					<dim>192</dim>
					<dim>1</dim>
					<dim>1</dim>
				</port>
			</input>
			<output>
				<port id="2" precision="FP32">
					<dim>1</dim>
					<dim>32</dim>
					<dim>25</dim>
					<dim>35</dim>
				</port>
			</output>
		</layer>
		<layer id="67" name="data_add_1773517740" type="Const" version="opset1">
			<data element_type="f32" shape="1, 32, 1, 1" offset="1710760" size="128" />
			<output>
				<port id="0" precision="FP32">
					<dim>1</dim>
					<dim>32</dim>
					<dim>1</dim>
					<dim>1</dim>
				</port>
			</output>
		</layer>
		<layer id="68" name="StatefulPartitionedCall/feature_extractor/inception_v3/batch_normalization_105/FusedBatchNormV3/variance/Fused_Add_" type="Add" version="opset1">
			<data auto_broadcast="numpy" />
			<input>
				<port id="0" precision="FP32">
					<dim>1</dim>
					<dim>32</dim>
					<dim>25</dim>
					<dim>35</dim>
				</port>
				<port id="1" precision="FP32">
					<dim>1</dim>
					<dim>32</dim>
					<dim>1</dim>
					<dim>1</dim>
				</port>
			</input>
			<output>
				<port id="2" precision="FP32" names="StatefulPartitionedCall/feature_extractor/inception_v3/batch_normalization_105/FusedBatchNormV3:0">
					<dim>1</dim>
					<dim>32</dim>
					<dim>25</dim>
					<dim>35</dim>
				</port>
			</output>
		</layer>
		<layer id="69" name="StatefulPartitionedCall/feature_extractor/inception_v3/activation_105/Relu" type="ReLU" version="opset1">
			<input>
				<port id="0" precision="FP32">
					<dim>1</dim>
					<dim>32</dim>
					<dim>25</dim>
					<dim>35</dim>
				</port>
			</input>
			<output>
				<port id="1" precision="FP32" names="StatefulPartitionedCall/feature_extractor/inception_v3/activation_105/Relu:0">
					<dim>1</dim>
					<dim>32</dim>
					<dim>25</dim>
					<dim>35</dim>
				</port>
			</output>
		</layer>
		<layer id="70" name="StatefulPartitionedCall/feature_extractor/inception_v3/mixed0/concat" type="Concat" version="opset1">
			<data axis="1" />
			<input>
				<port id="0" precision="FP32">
					<dim>1</dim>
					<dim>64</dim>
					<dim>25</dim>
					<dim>35</dim>
				</port>
				<port id="1" precision="FP32">
					<dim>1</dim>
					<dim>64</dim>
					<dim>25</dim>
					<dim>35</dim>
				</port>
				<port id="2" precision="FP32">
					<dim>1</dim>
					<dim>96</dim>
					<dim>25</dim>
					<dim>35</dim>
				</port>
				<port id="3" precision="FP32">
					<dim>1</dim>
					<dim>32</dim>
					<dim>25</dim>
					<dim>35</dim>
				</port>
			</input>
			<output>
				<port id="4" precision="FP32" names="StatefulPartitionedCall/feature_extractor/inception_v3/mixed0/concat:0">
					<dim>1</dim>
					<dim>256</dim>
					<dim>25</dim>
					<dim>35</dim>
				</port>
			</output>
		</layer>
		<layer id="71" name="StatefulPartitionedCall/feature_extractor/inception_v3/batch_normalization_106/FusedBatchNormV3/mean/Fused_Mul__copy" type="Const" version="opset1">
			<data element_type="f32" shape="64, 256, 1, 1" offset="1710888" size="65536" />
			<output>
				<port id="0" precision="FP32" names="StatefulPartitionedCall/feature_extractor/inception_v3/conv2d_106/Conv2D/ReadVariableOp:0">
					<dim>64</dim>
					<dim>256</dim>
					<dim>1</dim>
					<dim>1</dim>
				</port>
			</output>
		</layer>
		<layer id="72" name="StatefulPartitionedCall/feature_extractor/inception_v3/conv2d_106/Conv2D" type="Convolution" version="opset1">
			<data strides="1, 1" dilations="1, 1" pads_begin="0, 0" pads_end="0, 0" auto_pad="same_upper" />
			<input>
				<port id="0" precision="FP32">
					<dim>1</dim>
					<dim>256</dim>
					<dim>25</dim>
					<dim>35</dim>
				</port>
				<port id="1" precision="FP32">
					<dim>64</dim>
					<dim>256</dim>
					<dim>1</dim>
					<dim>1</dim>
				</port>
			</input>
			<output>
				<port id="2" precision="FP32">
					<dim>1</dim>
					<dim>64</dim>
					<dim>25</dim>
					<dim>35</dim>
				</port>
			</output>
		</layer>
		<layer id="73" name="data_add_1783917844" type="Const" version="opset1">
			<data element_type="f32" shape="1, 64, 1, 1" offset="1776424" size="256" />
			<output>
				<port id="0" precision="FP32">
					<dim>1</dim>
					<dim>64</dim>
					<dim>1</dim>
					<dim>1</dim>
				</port>
			</output>
		</layer>
		<layer id="74" name="StatefulPartitionedCall/feature_extractor/inception_v3/batch_normalization_106/FusedBatchNormV3/variance/Fused_Add_" type="Add" version="opset1">
			<data auto_broadcast="numpy" />
			<input>
				<port id="0" precision="FP32">
					<dim>1</dim>
					<dim>64</dim>
					<dim>25</dim>
					<dim>35</dim>
				</port>
				<port id="1" precision="FP32">
					<dim>1</dim>
					<dim>64</dim>
					<dim>1</dim>
					<dim>1</dim>
				</port>
			</input>
			<output>
				<port id="2" precision="FP32" names="StatefulPartitionedCall/feature_extractor/inception_v3/batch_normalization_106/FusedBatchNormV3:0">
					<dim>1</dim>
					<dim>64</dim>
					<dim>25</dim>
					<dim>35</dim>
				</port>
			</output>
		</layer>
		<layer id="75" name="StatefulPartitionedCall/feature_extractor/inception_v3/activation_106/Relu" type="ReLU" version="opset1">
			<input>
				<port id="0" precision="FP32">
					<dim>1</dim>
					<dim>64</dim>
					<dim>25</dim>
					<dim>35</dim>
				</port>
			</input>
			<output>
				<port id="1" precision="FP32" names="StatefulPartitionedCall/feature_extractor/inception_v3/activation_106/Relu:0">
					<dim>1</dim>
					<dim>64</dim>
					<dim>25</dim>
					<dim>35</dim>
				</port>
			</output>
		</layer>
		<layer id="76" name="StatefulPartitionedCall/feature_extractor/inception_v3/batch_normalization_107/FusedBatchNormV3/mean/Fused_Mul__copy" type="Const" version="opset1">
			<data element_type="f32" shape="48, 256, 1, 1" offset="1776680" size="49152" />
			<output>
				<port id="0" precision="FP32" names="StatefulPartitionedCall/feature_extractor/inception_v3/conv2d_107/Conv2D/ReadVariableOp:0">
					<dim>48</dim>
					<dim>256</dim>
					<dim>1</dim>
					<dim>1</dim>
				</port>
			</output>
		</layer>
		<layer id="77" name="StatefulPartitionedCall/feature_extractor/inception_v3/conv2d_107/Conv2D" type="Convolution" version="opset1">
			<data strides="1, 1" dilations="1, 1" pads_begin="0, 0" pads_end="0, 0" auto_pad="same_upper" />
			<input>
				<port id="0" precision="FP32">
					<dim>1</dim>
					<dim>256</dim>
					<dim>25</dim>
					<dim>35</dim>
				</port>
				<port id="1" precision="FP32">
					<dim>48</dim>
					<dim>256</dim>
					<dim>1</dim>
					<dim>1</dim>
				</port>
			</input>
			<output>
				<port id="2" precision="FP32">
					<dim>1</dim>
					<dim>48</dim>
					<dim>25</dim>
					<dim>35</dim>
				</port>
			</output>
		</layer>
		<layer id="78" name="data_add_1782317828" type="Const" version="opset1">
			<data element_type="f32" shape="1, 48, 1, 1" offset="1825832" size="192" />
			<output>
				<port id="0" precision="FP32">
					<dim>1</dim>
					<dim>48</dim>
					<dim>1</dim>
					<dim>1</dim>
				</port>
			</output>
		</layer>
		<layer id="79" name="StatefulPartitionedCall/feature_extractor/inception_v3/batch_normalization_107/FusedBatchNormV3/variance/Fused_Add_" type="Add" version="opset1">
			<data auto_broadcast="numpy" />
			<input>
				<port id="0" precision="FP32">
					<dim>1</dim>
					<dim>48</dim>
					<dim>25</dim>
					<dim>35</dim>
				</port>
				<port id="1" precision="FP32">
					<dim>1</dim>
					<dim>48</dim>
					<dim>1</dim>
					<dim>1</dim>
				</port>
			</input>
			<output>
				<port id="2" precision="FP32" names="StatefulPartitionedCall/feature_extractor/inception_v3/batch_normalization_107/FusedBatchNormV3:0">
					<dim>1</dim>
					<dim>48</dim>
					<dim>25</dim>
					<dim>35</dim>
				</port>
			</output>
		</layer>
		<layer id="80" name="StatefulPartitionedCall/feature_extractor/inception_v3/activation_107/Relu" type="ReLU" version="opset1">
			<input>
				<port id="0" precision="FP32">
					<dim>1</dim>
					<dim>48</dim>
					<dim>25</dim>
					<dim>35</dim>
				</port>
			</input>
			<output>
				<port id="1" precision="FP32" names="StatefulPartitionedCall/feature_extractor/inception_v3/activation_107/Relu:0">
					<dim>1</dim>
					<dim>48</dim>
					<dim>25</dim>
					<dim>35</dim>
				</port>
			</output>
		</layer>
		<layer id="81" name="StatefulPartitionedCall/feature_extractor/inception_v3/batch_normalization_108/FusedBatchNormV3/mean/Fused_Mul__copy" type="Const" version="opset1">
			<data element_type="f32" shape="64, 48, 5, 5" offset="1826024" size="307200" />
			<output>
				<port id="0" precision="FP32" names="StatefulPartitionedCall/feature_extractor/inception_v3/conv2d_108/Conv2D/ReadVariableOp:0">
					<dim>64</dim>
					<dim>48</dim>
					<dim>5</dim>
					<dim>5</dim>
				</port>
			</output>
		</layer>
		<layer id="82" name="StatefulPartitionedCall/feature_extractor/inception_v3/conv2d_108/Conv2D" type="Convolution" version="opset1">
			<data strides="1, 1" dilations="1, 1" pads_begin="0, 0" pads_end="0, 0" auto_pad="same_upper" />
			<input>
				<port id="0" precision="FP32">
					<dim>1</dim>
					<dim>48</dim>
					<dim>25</dim>
					<dim>35</dim>
				</port>
				<port id="1" precision="FP32">
					<dim>64</dim>
					<dim>48</dim>
					<dim>5</dim>
					<dim>5</dim>
				</port>
			</input>
			<output>
				<port id="2" precision="FP32">
					<dim>1</dim>
					<dim>64</dim>
					<dim>25</dim>
					<dim>35</dim>
				</port>
			</output>
		</layer>
		<layer id="83" name="data_add_1783117836" type="Const" version="opset1">
			<data element_type="f32" shape="1, 64, 1, 1" offset="2133224" size="256" />
			<output>
				<port id="0" precision="FP32">
					<dim>1</dim>
					<dim>64</dim>
					<dim>1</dim>
					<dim>1</dim>
				</port>
			</output>
		</layer>
		<layer id="84" name="StatefulPartitionedCall/feature_extractor/inception_v3/batch_normalization_108/FusedBatchNormV3/variance/Fused_Add_" type="Add" version="opset1">
			<data auto_broadcast="numpy" />
			<input>
				<port id="0" precision="FP32">
					<dim>1</dim>
					<dim>64</dim>
					<dim>25</dim>
					<dim>35</dim>
				</port>
				<port id="1" precision="FP32">
					<dim>1</dim>
					<dim>64</dim>
					<dim>1</dim>
					<dim>1</dim>
				</port>
			</input>
			<output>
				<port id="2" precision="FP32" names="StatefulPartitionedCall/feature_extractor/inception_v3/batch_normalization_108/FusedBatchNormV3:0">
					<dim>1</dim>
					<dim>64</dim>
					<dim>25</dim>
					<dim>35</dim>
				</port>
			</output>
		</layer>
		<layer id="85" name="StatefulPartitionedCall/feature_extractor/inception_v3/activation_108/Relu" type="ReLU" version="opset1">
			<input>
				<port id="0" precision="FP32">
					<dim>1</dim>
					<dim>64</dim>
					<dim>25</dim>
					<dim>35</dim>
				</port>
			</input>
			<output>
				<port id="1" precision="FP32" names="StatefulPartitionedCall/feature_extractor/inception_v3/activation_108/Relu:0">
					<dim>1</dim>
					<dim>64</dim>
					<dim>25</dim>
					<dim>35</dim>
				</port>
			</output>
		</layer>
		<layer id="86" name="StatefulPartitionedCall/feature_extractor/inception_v3/batch_normalization_109/FusedBatchNormV3/mean/Fused_Mul__copy" type="Const" version="opset1">
			<data element_type="f32" shape="64, 256, 1, 1" offset="2133480" size="65536" />
			<output>
				<port id="0" precision="FP32" names="StatefulPartitionedCall/feature_extractor/inception_v3/conv2d_109/Conv2D/ReadVariableOp:0">
					<dim>64</dim>
					<dim>256</dim>
					<dim>1</dim>
					<dim>1</dim>
				</port>
			</output>
		</layer>
		<layer id="87" name="StatefulPartitionedCall/feature_extractor/inception_v3/conv2d_109/Conv2D" type="Convolution" version="opset1">
			<data strides="1, 1" dilations="1, 1" pads_begin="0, 0" pads_end="0, 0" auto_pad="same_upper" />
			<input>
				<port id="0" precision="FP32">
					<dim>1</dim>
					<dim>256</dim>
					<dim>25</dim>
					<dim>35</dim>
				</port>
				<port id="1" precision="FP32">
					<dim>64</dim>
					<dim>256</dim>
					<dim>1</dim>
					<dim>1</dim>
				</port>
			</input>
			<output>
				<port id="2" precision="FP32">
					<dim>1</dim>
					<dim>64</dim>
					<dim>25</dim>
					<dim>35</dim>
				</port>
			</output>
		</layer>
		<layer id="88" name="data_add_1779917804" type="Const" version="opset1">
			<data element_type="f32" shape="1, 64, 1, 1" offset="2199016" size="256" />
			<output>
				<port id="0" precision="FP32">
					<dim>1</dim>
					<dim>64</dim>
					<dim>1</dim>
					<dim>1</dim>
				</port>
			</output>
		</layer>
		<layer id="89" name="StatefulPartitionedCall/feature_extractor/inception_v3/batch_normalization_109/FusedBatchNormV3/variance/Fused_Add_" type="Add" version="opset1">
			<data auto_broadcast="numpy" />
			<input>
				<port id="0" precision="FP32">
					<dim>1</dim>
					<dim>64</dim>
					<dim>25</dim>
					<dim>35</dim>
				</port>
				<port id="1" precision="FP32">
					<dim>1</dim>
					<dim>64</dim>
					<dim>1</dim>
					<dim>1</dim>
				</port>
			</input>
			<output>
				<port id="2" precision="FP32" names="StatefulPartitionedCall/feature_extractor/inception_v3/batch_normalization_109/FusedBatchNormV3:0">
					<dim>1</dim>
					<dim>64</dim>
					<dim>25</dim>
					<dim>35</dim>
				</port>
			</output>
		</layer>
		<layer id="90" name="StatefulPartitionedCall/feature_extractor/inception_v3/activation_109/Relu" type="ReLU" version="opset1">
			<input>
				<port id="0" precision="FP32">
					<dim>1</dim>
					<dim>64</dim>
					<dim>25</dim>
					<dim>35</dim>
				</port>
			</input>
			<output>
				<port id="1" precision="FP32" names="StatefulPartitionedCall/feature_extractor/inception_v3/activation_109/Relu:0">
					<dim>1</dim>
					<dim>64</dim>
					<dim>25</dim>
					<dim>35</dim>
				</port>
			</output>
		</layer>
		<layer id="91" name="StatefulPartitionedCall/feature_extractor/inception_v3/batch_normalization_110/FusedBatchNormV3/mean/Fused_Mul__copy" type="Const" version="opset1">
			<data element_type="f32" shape="96, 64, 3, 3" offset="2199272" size="221184" />
			<output>
				<port id="0" precision="FP32" names="StatefulPartitionedCall/feature_extractor/inception_v3/conv2d_110/Conv2D/ReadVariableOp:0">
					<dim>96</dim>
					<dim>64</dim>
					<dim>3</dim>
					<dim>3</dim>
				</port>
			</output>
		</layer>
		<layer id="92" name="StatefulPartitionedCall/feature_extractor/inception_v3/conv2d_110/Conv2D" type="Convolution" version="opset1">
			<data strides="1, 1" dilations="1, 1" pads_begin="0, 0" pads_end="0, 0" auto_pad="same_upper" />
			<input>
				<port id="0" precision="FP32">
					<dim>1</dim>
					<dim>64</dim>
					<dim>25</dim>
					<dim>35</dim>
				</port>
				<port id="1" precision="FP32">
					<dim>96</dim>
					<dim>64</dim>
					<dim>3</dim>
					<dim>3</dim>
				</port>
			</input>
			<output>
				<port id="2" precision="FP32">
					<dim>1</dim>
					<dim>96</dim>
					<dim>25</dim>
					<dim>35</dim>
				</port>
			</output>
		</layer>
		<layer id="93" name="data_add_1780717812" type="Const" version="opset1">
			<data element_type="f32" shape="1, 96, 1, 1" offset="2420456" size="384" />
			<output>
				<port id="0" precision="FP32">
					<dim>1</dim>
					<dim>96</dim>
					<dim>1</dim>
					<dim>1</dim>
				</port>
			</output>
		</layer>
		<layer id="94" name="StatefulPartitionedCall/feature_extractor/inception_v3/batch_normalization_110/FusedBatchNormV3/variance/Fused_Add_" type="Add" version="opset1">
			<data auto_broadcast="numpy" />
			<input>
				<port id="0" precision="FP32">
					<dim>1</dim>
					<dim>96</dim>
					<dim>25</dim>
					<dim>35</dim>
				</port>
				<port id="1" precision="FP32">
					<dim>1</dim>
					<dim>96</dim>
					<dim>1</dim>
					<dim>1</dim>
				</port>
			</input>
			<output>
				<port id="2" precision="FP32" names="StatefulPartitionedCall/feature_extractor/inception_v3/batch_normalization_110/FusedBatchNormV3:0">
					<dim>1</dim>
					<dim>96</dim>
					<dim>25</dim>
					<dim>35</dim>
				</port>
			</output>
		</layer>
		<layer id="95" name="StatefulPartitionedCall/feature_extractor/inception_v3/activation_110/Relu" type="ReLU" version="opset1">
			<input>
				<port id="0" precision="FP32">
					<dim>1</dim>
					<dim>96</dim>
					<dim>25</dim>
					<dim>35</dim>
				</port>
			</input>
			<output>
				<port id="1" precision="FP32" names="StatefulPartitionedCall/feature_extractor/inception_v3/activation_110/Relu:0">
					<dim>1</dim>
					<dim>96</dim>
					<dim>25</dim>
					<dim>35</dim>
				</port>
			</output>
		</layer>
		<layer id="96" name="StatefulPartitionedCall/feature_extractor/inception_v3/batch_normalization_111/FusedBatchNormV3/mean/Fused_Mul__copy" type="Const" version="opset1">
			<data element_type="f32" shape="96, 96, 3, 3" offset="2420840" size="331776" />
			<output>
				<port id="0" precision="FP32" names="StatefulPartitionedCall/feature_extractor/inception_v3/conv2d_111/Conv2D/ReadVariableOp:0">
					<dim>96</dim>
					<dim>96</dim>
					<dim>3</dim>
					<dim>3</dim>
				</port>
			</output>
		</layer>
		<layer id="97" name="StatefulPartitionedCall/feature_extractor/inception_v3/conv2d_111/Conv2D" type="Convolution" version="opset1">
			<data strides="1, 1" dilations="1, 1" pads_begin="0, 0" pads_end="0, 0" auto_pad="same_upper" />
			<input>
				<port id="0" precision="FP32">
					<dim>1</dim>
					<dim>96</dim>
					<dim>25</dim>
					<dim>35</dim>
				</port>
				<port id="1" precision="FP32">
					<dim>96</dim>
					<dim>96</dim>
					<dim>3</dim>
					<dim>3</dim>
				</port>
			</input>
			<output>
				<port id="2" precision="FP32">
					<dim>1</dim>
					<dim>96</dim>
					<dim>25</dim>
					<dim>35</dim>
				</port>
			</output>
		</layer>
		<layer id="98" name="data_add_1781517820" type="Const" version="opset1">
			<data element_type="f32" shape="1, 96, 1, 1" offset="2752616" size="384" />
			<output>
				<port id="0" precision="FP32">
					<dim>1</dim>
					<dim>96</dim>
					<dim>1</dim>
					<dim>1</dim>
				</port>
			</output>
		</layer>
		<layer id="99" name="StatefulPartitionedCall/feature_extractor/inception_v3/batch_normalization_111/FusedBatchNormV3/variance/Fused_Add_" type="Add" version="opset1">
			<data auto_broadcast="numpy" />
			<input>
				<port id="0" precision="FP32">
					<dim>1</dim>
					<dim>96</dim>
					<dim>25</dim>
					<dim>35</dim>
				</port>
				<port id="1" precision="FP32">
					<dim>1</dim>
					<dim>96</dim>
					<dim>1</dim>
					<dim>1</dim>
				</port>
			</input>
			<output>
				<port id="2" precision="FP32" names="StatefulPartitionedCall/feature_extractor/inception_v3/batch_normalization_111/FusedBatchNormV3:0">
					<dim>1</dim>
					<dim>96</dim>
					<dim>25</dim>
					<dim>35</dim>
				</port>
			</output>
		</layer>
		<layer id="100" name="StatefulPartitionedCall/feature_extractor/inception_v3/activation_111/Relu" type="ReLU" version="opset1">
			<input>
				<port id="0" precision="FP32">
					<dim>1</dim>
					<dim>96</dim>
					<dim>25</dim>
					<dim>35</dim>
				</port>
			</input>
			<output>
				<port id="1" precision="FP32" names="StatefulPartitionedCall/feature_extractor/inception_v3/activation_111/Relu:0">
					<dim>1</dim>
					<dim>96</dim>
					<dim>25</dim>
					<dim>35</dim>
				</port>
			</output>
		</layer>
		<layer id="101" name="StatefulPartitionedCall/feature_extractor/inception_v3/average_pooling2d_10/AvgPool" type="AvgPool" version="opset1">
			<data kernel="3, 3" strides="1, 1" pads_begin="0, 0" pads_end="0, 0" exclude-pad="true" auto_pad="same_upper" rounding_type="floor" />
			<input>
				<port id="0" precision="FP32">
					<dim>1</dim>
					<dim>256</dim>
					<dim>25</dim>
					<dim>35</dim>
				</port>
			</input>
			<output>
				<port id="1" precision="FP32" names="StatefulPartitionedCall/feature_extractor/inception_v3/average_pooling2d_10/AvgPool:0">
					<dim>1</dim>
					<dim>256</dim>
					<dim>25</dim>
					<dim>35</dim>
				</port>
			</output>
		</layer>
		<layer id="102" name="StatefulPartitionedCall/feature_extractor/inception_v3/batch_normalization_112/FusedBatchNormV3/mean/Fused_Mul__copy" type="Const" version="opset1">
			<data element_type="f32" shape="64, 256, 1, 1" offset="2753000" size="65536" />
			<output>
				<port id="0" precision="FP32" names="StatefulPartitionedCall/feature_extractor/inception_v3/conv2d_112/Conv2D/ReadVariableOp:0">
					<dim>64</dim>
					<dim>256</dim>
					<dim>1</dim>
					<dim>1</dim>
				</port>
			</output>
		</layer>
		<layer id="103" name="StatefulPartitionedCall/feature_extractor/inception_v3/conv2d_112/Conv2D" type="Convolution" version="opset1">
			<data strides="1, 1" dilations="1, 1" pads_begin="0, 0" pads_end="0, 0" auto_pad="same_upper" />
			<input>
				<port id="0" precision="FP32">
					<dim>1</dim>
					<dim>256</dim>
					<dim>25</dim>
					<dim>35</dim>
				</port>
				<port id="1" precision="FP32">
					<dim>64</dim>
					<dim>256</dim>
					<dim>1</dim>
					<dim>1</dim>
				</port>
			</input>
			<output>
				<port id="2" precision="FP32">
					<dim>1</dim>
					<dim>64</dim>
					<dim>25</dim>
					<dim>35</dim>
				</port>
			</output>
		</layer>
		<layer id="104" name="data_add_1779117796" type="Const" version="opset1">
			<data element_type="f32" shape="1, 64, 1, 1" offset="2818536" size="256" />
			<output>
				<port id="0" precision="FP32">
					<dim>1</dim>
					<dim>64</dim>
					<dim>1</dim>
					<dim>1</dim>
				</port>
			</output>
		</layer>
		<layer id="105" name="StatefulPartitionedCall/feature_extractor/inception_v3/batch_normalization_112/FusedBatchNormV3/variance/Fused_Add_" type="Add" version="opset1">
			<data auto_broadcast="numpy" />
			<input>
				<port id="0" precision="FP32">
					<dim>1</dim>
					<dim>64</dim>
					<dim>25</dim>
					<dim>35</dim>
				</port>
				<port id="1" precision="FP32">
					<dim>1</dim>
					<dim>64</dim>
					<dim>1</dim>
					<dim>1</dim>
				</port>
			</input>
			<output>
				<port id="2" precision="FP32" names="StatefulPartitionedCall/feature_extractor/inception_v3/batch_normalization_112/FusedBatchNormV3:0">
					<dim>1</dim>
					<dim>64</dim>
					<dim>25</dim>
					<dim>35</dim>
				</port>
			</output>
		</layer>
		<layer id="106" name="StatefulPartitionedCall/feature_extractor/inception_v3/activation_112/Relu" type="ReLU" version="opset1">
			<input>
				<port id="0" precision="FP32">
					<dim>1</dim>
					<dim>64</dim>
					<dim>25</dim>
					<dim>35</dim>
				</port>
			</input>
			<output>
				<port id="1" precision="FP32" names="StatefulPartitionedCall/feature_extractor/inception_v3/activation_112/Relu:0">
					<dim>1</dim>
					<dim>64</dim>
					<dim>25</dim>
					<dim>35</dim>
				</port>
			</output>
		</layer>
		<layer id="107" name="StatefulPartitionedCall/feature_extractor/inception_v3/mixed1/concat" type="Concat" version="opset1">
			<data axis="1" />
			<input>
				<port id="0" precision="FP32">
					<dim>1</dim>
					<dim>64</dim>
					<dim>25</dim>
					<dim>35</dim>
				</port>
				<port id="1" precision="FP32">
					<dim>1</dim>
					<dim>64</dim>
					<dim>25</dim>
					<dim>35</dim>
				</port>
				<port id="2" precision="FP32">
					<dim>1</dim>
					<dim>96</dim>
					<dim>25</dim>
					<dim>35</dim>
				</port>
				<port id="3" precision="FP32">
					<dim>1</dim>
					<dim>64</dim>
					<dim>25</dim>
					<dim>35</dim>
				</port>
			</input>
			<output>
				<port id="4" precision="FP32" names="StatefulPartitionedCall/feature_extractor/inception_v3/mixed1/concat:0">
					<dim>1</dim>
					<dim>288</dim>
					<dim>25</dim>
					<dim>35</dim>
				</port>
			</output>
		</layer>
		<layer id="108" name="StatefulPartitionedCall/feature_extractor/inception_v3/batch_normalization_113/FusedBatchNormV3/mean/Fused_Mul__copy" type="Const" version="opset1">
			<data element_type="f32" shape="64, 288, 1, 1" offset="2818792" size="73728" />
			<output>
				<port id="0" precision="FP32" names="StatefulPartitionedCall/feature_extractor/inception_v3/conv2d_113/Conv2D/ReadVariableOp:0">
					<dim>64</dim>
					<dim>288</dim>
					<dim>1</dim>
					<dim>1</dim>
				</port>
			</output>
		</layer>
		<layer id="109" name="StatefulPartitionedCall/feature_extractor/inception_v3/conv2d_113/Conv2D" type="Convolution" version="opset1">
			<data strides="1, 1" dilations="1, 1" pads_begin="0, 0" pads_end="0, 0" auto_pad="same_upper" />
			<input>
				<port id="0" precision="FP32">
					<dim>1</dim>
					<dim>288</dim>
					<dim>25</dim>
					<dim>35</dim>
				</port>
				<port id="1" precision="FP32">
					<dim>64</dim>
					<dim>288</dim>
					<dim>1</dim>
					<dim>1</dim>
				</port>
			</input>
			<output>
				<port id="2" precision="FP32">
					<dim>1</dim>
					<dim>64</dim>
					<dim>25</dim>
					<dim>35</dim>
				</port>
			</output>
		</layer>
		<layer id="110" name="data_add_1789517900" type="Const" version="opset1">
			<data element_type="f32" shape="1, 64, 1, 1" offset="2892520" size="256" />
			<output>
				<port id="0" precision="FP32">
					<dim>1</dim>
					<dim>64</dim>
					<dim>1</dim>
					<dim>1</dim>
				</port>
			</output>
		</layer>
		<layer id="111" name="StatefulPartitionedCall/feature_extractor/inception_v3/batch_normalization_113/FusedBatchNormV3/variance/Fused_Add_" type="Add" version="opset1">
			<data auto_broadcast="numpy" />
			<input>
				<port id="0" precision="FP32">
					<dim>1</dim>
					<dim>64</dim>
					<dim>25</dim>
					<dim>35</dim>
				</port>
				<port id="1" precision="FP32">
					<dim>1</dim>
					<dim>64</dim>
					<dim>1</dim>
					<dim>1</dim>
				</port>
			</input>
			<output>
				<port id="2" precision="FP32" names="StatefulPartitionedCall/feature_extractor/inception_v3/batch_normalization_113/FusedBatchNormV3:0">
					<dim>1</dim>
					<dim>64</dim>
					<dim>25</dim>
					<dim>35</dim>
				</port>
			</output>
		</layer>
		<layer id="112" name="StatefulPartitionedCall/feature_extractor/inception_v3/activation_113/Relu" type="ReLU" version="opset1">
			<input>
				<port id="0" precision="FP32">
					<dim>1</dim>
					<dim>64</dim>
					<dim>25</dim>
					<dim>35</dim>
				</port>
			</input>
			<output>
				<port id="1" precision="FP32" names="StatefulPartitionedCall/feature_extractor/inception_v3/activation_113/Relu:0">
					<dim>1</dim>
					<dim>64</dim>
					<dim>25</dim>
					<dim>35</dim>
				</port>
			</output>
		</layer>
		<layer id="113" name="StatefulPartitionedCall/feature_extractor/inception_v3/batch_normalization_114/FusedBatchNormV3/mean/Fused_Mul__copy" type="Const" version="opset1">
			<data element_type="f32" shape="48, 288, 1, 1" offset="2892776" size="55296" />
			<output>
				<port id="0" precision="FP32" names="StatefulPartitionedCall/feature_extractor/inception_v3/conv2d_114/Conv2D/ReadVariableOp:0">
					<dim>48</dim>
					<dim>288</dim>
					<dim>1</dim>
					<dim>1</dim>
				</port>
			</output>
		</layer>
		<layer id="114" name="StatefulPartitionedCall/feature_extractor/inception_v3/conv2d_114/Conv2D" type="Convolution" version="opset1">
			<data strides="1, 1" dilations="1, 1" pads_begin="0, 0" pads_end="0, 0" auto_pad="same_upper" />
			<input>
				<port id="0" precision="FP32">
					<dim>1</dim>
					<dim>288</dim>
					<dim>25</dim>
					<dim>35</dim>
				</port>
				<port id="1" precision="FP32">
					<dim>48</dim>
					<dim>288</dim>
					<dim>1</dim>
					<dim>1</dim>
				</port>
			</input>
			<output>
				<port id="2" precision="FP32">
					<dim>1</dim>
					<dim>48</dim>
					<dim>25</dim>
					<dim>35</dim>
				</port>
			</output>
		</layer>
		<layer id="115" name="data_add_1787917884" type="Const" version="opset1">
			<data element_type="f32" shape="1, 48, 1, 1" offset="2948072" size="192" />
			<output>
				<port id="0" precision="FP32">
					<dim>1</dim>
					<dim>48</dim>
					<dim>1</dim>
					<dim>1</dim>
				</port>
			</output>
		</layer>
		<layer id="116" name="StatefulPartitionedCall/feature_extractor/inception_v3/batch_normalization_114/FusedBatchNormV3/variance/Fused_Add_" type="Add" version="opset1">
			<data auto_broadcast="numpy" />
			<input>
				<port id="0" precision="FP32">
					<dim>1</dim>
					<dim>48</dim>
					<dim>25</dim>
					<dim>35</dim>
				</port>
				<port id="1" precision="FP32">
					<dim>1</dim>
					<dim>48</dim>
					<dim>1</dim>
					<dim>1</dim>
				</port>
			</input>
			<output>
				<port id="2" precision="FP32" names="StatefulPartitionedCall/feature_extractor/inception_v3/batch_normalization_114/FusedBatchNormV3:0">
					<dim>1</dim>
					<dim>48</dim>
					<dim>25</dim>
					<dim>35</dim>
				</port>
			</output>
		</layer>
		<layer id="117" name="StatefulPartitionedCall/feature_extractor/inception_v3/activation_114/Relu" type="ReLU" version="opset1">
			<input>
				<port id="0" precision="FP32">
					<dim>1</dim>
					<dim>48</dim>
					<dim>25</dim>
					<dim>35</dim>
				</port>
			</input>
			<output>
				<port id="1" precision="FP32" names="StatefulPartitionedCall/feature_extractor/inception_v3/activation_114/Relu:0">
					<dim>1</dim>
					<dim>48</dim>
					<dim>25</dim>
					<dim>35</dim>
				</port>
			</output>
		</layer>
		<layer id="118" name="StatefulPartitionedCall/feature_extractor/inception_v3/batch_normalization_115/FusedBatchNormV3/mean/Fused_Mul__copy" type="Const" version="opset1">
			<data element_type="f32" shape="64, 48, 5, 5" offset="2948264" size="307200" />
			<output>
				<port id="0" precision="FP32" names="StatefulPartitionedCall/feature_extractor/inception_v3/conv2d_115/Conv2D/ReadVariableOp:0">
					<dim>64</dim>
					<dim>48</dim>
					<dim>5</dim>
					<dim>5</dim>
				</port>
			</output>
		</layer>
		<layer id="119" name="StatefulPartitionedCall/feature_extractor/inception_v3/conv2d_115/Conv2D" type="Convolution" version="opset1">
			<data strides="1, 1" dilations="1, 1" pads_begin="0, 0" pads_end="0, 0" auto_pad="same_upper" />
			<input>
				<port id="0" precision="FP32">
					<dim>1</dim>
					<dim>48</dim>
					<dim>25</dim>
					<dim>35</dim>
				</port>
				<port id="1" precision="FP32">
					<dim>64</dim>
					<dim>48</dim>
					<dim>5</dim>
					<dim>5</dim>
				</port>
			</input>
			<output>
				<port id="2" precision="FP32">
					<dim>1</dim>
					<dim>64</dim>
					<dim>25</dim>
					<dim>35</dim>
				</port>
			</output>
		</layer>
		<layer id="120" name="data_add_1788717892" type="Const" version="opset1">
			<data element_type="f32" shape="1, 64, 1, 1" offset="3255464" size="256" />
			<output>
				<port id="0" precision="FP32">
					<dim>1</dim>
					<dim>64</dim>
					<dim>1</dim>
					<dim>1</dim>
				</port>
			</output>
		</layer>
		<layer id="121" name="StatefulPartitionedCall/feature_extractor/inception_v3/batch_normalization_115/FusedBatchNormV3/variance/Fused_Add_" type="Add" version="opset1">
			<data auto_broadcast="numpy" />
			<input>
				<port id="0" precision="FP32">
					<dim>1</dim>
					<dim>64</dim>
					<dim>25</dim>
					<dim>35</dim>
				</port>
				<port id="1" precision="FP32">
					<dim>1</dim>
					<dim>64</dim>
					<dim>1</dim>
					<dim>1</dim>
				</port>
			</input>
			<output>
				<port id="2" precision="FP32" names="StatefulPartitionedCall/feature_extractor/inception_v3/batch_normalization_115/FusedBatchNormV3:0">
					<dim>1</dim>
					<dim>64</dim>
					<dim>25</dim>
					<dim>35</dim>
				</port>
			</output>
		</layer>
		<layer id="122" name="StatefulPartitionedCall/feature_extractor/inception_v3/activation_115/Relu" type="ReLU" version="opset1">
			<input>
				<port id="0" precision="FP32">
					<dim>1</dim>
					<dim>64</dim>
					<dim>25</dim>
					<dim>35</dim>
				</port>
			</input>
			<output>
				<port id="1" precision="FP32" names="StatefulPartitionedCall/feature_extractor/inception_v3/activation_115/Relu:0">
					<dim>1</dim>
					<dim>64</dim>
					<dim>25</dim>
					<dim>35</dim>
				</port>
			</output>
		</layer>
		<layer id="123" name="StatefulPartitionedCall/feature_extractor/inception_v3/batch_normalization_116/FusedBatchNormV3/mean/Fused_Mul__copy" type="Const" version="opset1">
			<data element_type="f32" shape="64, 288, 1, 1" offset="3255720" size="73728" />
			<output>
				<port id="0" precision="FP32" names="StatefulPartitionedCall/feature_extractor/inception_v3/conv2d_116/Conv2D/ReadVariableOp:0">
					<dim>64</dim>
					<dim>288</dim>
					<dim>1</dim>
					<dim>1</dim>
				</port>
			</output>
		</layer>
		<layer id="124" name="StatefulPartitionedCall/feature_extractor/inception_v3/conv2d_116/Conv2D" type="Convolution" version="opset1">
			<data strides="1, 1" dilations="1, 1" pads_begin="0, 0" pads_end="0, 0" auto_pad="same_upper" />
			<input>
				<port id="0" precision="FP32">
					<dim>1</dim>
					<dim>288</dim>
					<dim>25</dim>
					<dim>35</dim>
				</port>
				<port id="1" precision="FP32">
					<dim>64</dim>
					<dim>288</dim>
					<dim>1</dim>
					<dim>1</dim>
				</port>
			</input>
			<output>
				<port id="2" precision="FP32">
					<dim>1</dim>
					<dim>64</dim>
					<dim>25</dim>
					<dim>35</dim>
				</port>
			</output>
		</layer>
		<layer id="125" name="data_add_1785517860" type="Const" version="opset1">
			<data element_type="f32" shape="1, 64, 1, 1" offset="3329448" size="256" />
			<output>
				<port id="0" precision="FP32">
					<dim>1</dim>
					<dim>64</dim>
					<dim>1</dim>
					<dim>1</dim>
				</port>
			</output>
		</layer>
		<layer id="126" name="StatefulPartitionedCall/feature_extractor/inception_v3/batch_normalization_116/FusedBatchNormV3/variance/Fused_Add_" type="Add" version="opset1">
			<data auto_broadcast="numpy" />
			<input>
				<port id="0" precision="FP32">
					<dim>1</dim>
					<dim>64</dim>
					<dim>25</dim>
					<dim>35</dim>
				</port>
				<port id="1" precision="FP32">
					<dim>1</dim>
					<dim>64</dim>
					<dim>1</dim>
					<dim>1</dim>
				</port>
			</input>
			<output>
				<port id="2" precision="FP32" names="StatefulPartitionedCall/feature_extractor/inception_v3/batch_normalization_116/FusedBatchNormV3:0">
					<dim>1</dim>
					<dim>64</dim>
					<dim>25</dim>
					<dim>35</dim>
				</port>
			</output>
		</layer>
		<layer id="127" name="StatefulPartitionedCall/feature_extractor/inception_v3/activation_116/Relu" type="ReLU" version="opset1">
			<input>
				<port id="0" precision="FP32">
					<dim>1</dim>
					<dim>64</dim>
					<dim>25</dim>
					<dim>35</dim>
				</port>
			</input>
			<output>
				<port id="1" precision="FP32" names="StatefulPartitionedCall/feature_extractor/inception_v3/activation_116/Relu:0">
					<dim>1</dim>
					<dim>64</dim>
					<dim>25</dim>
					<dim>35</dim>
				</port>
			</output>
		</layer>
		<layer id="128" name="StatefulPartitionedCall/feature_extractor/inception_v3/batch_normalization_117/FusedBatchNormV3/mean/Fused_Mul__copy" type="Const" version="opset1">
			<data element_type="f32" shape="96, 64, 3, 3" offset="3329704" size="221184" />
			<output>
				<port id="0" precision="FP32" names="StatefulPartitionedCall/feature_extractor/inception_v3/conv2d_117/Conv2D/ReadVariableOp:0">
					<dim>96</dim>
					<dim>64</dim>
					<dim>3</dim>
					<dim>3</dim>
				</port>
			</output>
		</layer>
		<layer id="129" name="StatefulPartitionedCall/feature_extractor/inception_v3/conv2d_117/Conv2D" type="Convolution" version="opset1">
			<data strides="1, 1" dilations="1, 1" pads_begin="0, 0" pads_end="0, 0" auto_pad="same_upper" />
			<input>
				<port id="0" precision="FP32">
					<dim>1</dim>
					<dim>64</dim>
					<dim>25</dim>
					<dim>35</dim>
				</port>
				<port id="1" precision="FP32">
					<dim>96</dim>
					<dim>64</dim>
					<dim>3</dim>
					<dim>3</dim>
				</port>
			</input>
			<output>
				<port id="2" precision="FP32">
					<dim>1</dim>
					<dim>96</dim>
					<dim>25</dim>
					<dim>35</dim>
				</port>
			</output>
		</layer>
		<layer id="130" name="data_add_1786317868" type="Const" version="opset1">
			<data element_type="f32" shape="1, 96, 1, 1" offset="3550888" size="384" />
			<output>
				<port id="0" precision="FP32">
					<dim>1</dim>
					<dim>96</dim>
					<dim>1</dim>
					<dim>1</dim>
				</port>
			</output>
		</layer>
		<layer id="131" name="StatefulPartitionedCall/feature_extractor/inception_v3/batch_normalization_117/FusedBatchNormV3/variance/Fused_Add_" type="Add" version="opset1">
			<data auto_broadcast="numpy" />
			<input>
				<port id="0" precision="FP32">
					<dim>1</dim>
					<dim>96</dim>
					<dim>25</dim>
					<dim>35</dim>
				</port>
				<port id="1" precision="FP32">
					<dim>1</dim>
					<dim>96</dim>
					<dim>1</dim>
					<dim>1</dim>
				</port>
			</input>
			<output>
				<port id="2" precision="FP32" names="StatefulPartitionedCall/feature_extractor/inception_v3/batch_normalization_117/FusedBatchNormV3:0">
					<dim>1</dim>
					<dim>96</dim>
					<dim>25</dim>
					<dim>35</dim>
				</port>
			</output>
		</layer>
		<layer id="132" name="StatefulPartitionedCall/feature_extractor/inception_v3/activation_117/Relu" type="ReLU" version="opset1">
			<input>
				<port id="0" precision="FP32">
					<dim>1</dim>
					<dim>96</dim>
					<dim>25</dim>
					<dim>35</dim>
				</port>
			</input>
			<output>
				<port id="1" precision="FP32" names="StatefulPartitionedCall/feature_extractor/inception_v3/activation_117/Relu:0">
					<dim>1</dim>
					<dim>96</dim>
					<dim>25</dim>
					<dim>35</dim>
				</port>
			</output>
		</layer>
		<layer id="133" name="StatefulPartitionedCall/feature_extractor/inception_v3/batch_normalization_118/FusedBatchNormV3/mean/Fused_Mul__copy" type="Const" version="opset1">
			<data element_type="f32" shape="96, 96, 3, 3" offset="3551272" size="331776" />
			<output>
				<port id="0" precision="FP32" names="StatefulPartitionedCall/feature_extractor/inception_v3/conv2d_118/Conv2D/ReadVariableOp:0">
					<dim>96</dim>
					<dim>96</dim>
					<dim>3</dim>
					<dim>3</dim>
				</port>
			</output>
		</layer>
		<layer id="134" name="StatefulPartitionedCall/feature_extractor/inception_v3/conv2d_118/Conv2D" type="Convolution" version="opset1">
			<data strides="1, 1" dilations="1, 1" pads_begin="0, 0" pads_end="0, 0" auto_pad="same_upper" />
			<input>
				<port id="0" precision="FP32">
					<dim>1</dim>
					<dim>96</dim>
					<dim>25</dim>
					<dim>35</dim>
				</port>
				<port id="1" precision="FP32">
					<dim>96</dim>
					<dim>96</dim>
					<dim>3</dim>
					<dim>3</dim>
				</port>
			</input>
			<output>
				<port id="2" precision="FP32">
					<dim>1</dim>
					<dim>96</dim>
					<dim>25</dim>
					<dim>35</dim>
				</port>
			</output>
		</layer>
		<layer id="135" name="data_add_1787117876" type="Const" version="opset1">
			<data element_type="f32" shape="1, 96, 1, 1" offset="3883048" size="384" />
			<output>
				<port id="0" precision="FP32">
					<dim>1</dim>
					<dim>96</dim>
					<dim>1</dim>
					<dim>1</dim>
				</port>
			</output>
		</layer>
		<layer id="136" name="StatefulPartitionedCall/feature_extractor/inception_v3/batch_normalization_118/FusedBatchNormV3/variance/Fused_Add_" type="Add" version="opset1">
			<data auto_broadcast="numpy" />
			<input>
				<port id="0" precision="FP32">
					<dim>1</dim>
					<dim>96</dim>
					<dim>25</dim>
					<dim>35</dim>
				</port>
				<port id="1" precision="FP32">
					<dim>1</dim>
					<dim>96</dim>
					<dim>1</dim>
					<dim>1</dim>
				</port>
			</input>
			<output>
				<port id="2" precision="FP32" names="StatefulPartitionedCall/feature_extractor/inception_v3/batch_normalization_118/FusedBatchNormV3:0">
					<dim>1</dim>
					<dim>96</dim>
					<dim>25</dim>
					<dim>35</dim>
				</port>
			</output>
		</layer>
		<layer id="137" name="StatefulPartitionedCall/feature_extractor/inception_v3/activation_118/Relu" type="ReLU" version="opset1">
			<input>
				<port id="0" precision="FP32">
					<dim>1</dim>
					<dim>96</dim>
					<dim>25</dim>
					<dim>35</dim>
				</port>
			</input>
			<output>
				<port id="1" precision="FP32" names="StatefulPartitionedCall/feature_extractor/inception_v3/activation_118/Relu:0">
					<dim>1</dim>
					<dim>96</dim>
					<dim>25</dim>
					<dim>35</dim>
				</port>
			</output>
		</layer>
		<layer id="138" name="StatefulPartitionedCall/feature_extractor/inception_v3/average_pooling2d_11/AvgPool" type="AvgPool" version="opset1">
			<data kernel="3, 3" strides="1, 1" pads_begin="0, 0" pads_end="0, 0" exclude-pad="true" auto_pad="same_upper" rounding_type="floor" />
			<input>
				<port id="0" precision="FP32">
					<dim>1</dim>
					<dim>288</dim>
					<dim>25</dim>
					<dim>35</dim>
				</port>
			</input>
			<output>
				<port id="1" precision="FP32" names="StatefulPartitionedCall/feature_extractor/inception_v3/average_pooling2d_11/AvgPool:0">
					<dim>1</dim>
					<dim>288</dim>
					<dim>25</dim>
					<dim>35</dim>
				</port>
			</output>
		</layer>
		<layer id="139" name="StatefulPartitionedCall/feature_extractor/inception_v3/batch_normalization_119/FusedBatchNormV3/mean/Fused_Mul__copy" type="Const" version="opset1">
			<data element_type="f32" shape="64, 288, 1, 1" offset="3883432" size="73728" />
			<output>
				<port id="0" precision="FP32" names="StatefulPartitionedCall/feature_extractor/inception_v3/conv2d_119/Conv2D/ReadVariableOp:0">
					<dim>64</dim>
					<dim>288</dim>
					<dim>1</dim>
					<dim>1</dim>
				</port>
			</output>
		</layer>
		<layer id="140" name="StatefulPartitionedCall/feature_extractor/inception_v3/conv2d_119/Conv2D" type="Convolution" version="opset1">
			<data strides="1, 1" dilations="1, 1" pads_begin="0, 0" pads_end="0, 0" auto_pad="same_upper" />
			<input>
				<port id="0" precision="FP32">
					<dim>1</dim>
					<dim>288</dim>
					<dim>25</dim>
					<dim>35</dim>
				</port>
				<port id="1" precision="FP32">
					<dim>64</dim>
					<dim>288</dim>
					<dim>1</dim>
					<dim>1</dim>
				</port>
			</input>
			<output>
				<port id="2" precision="FP32">
					<dim>1</dim>
					<dim>64</dim>
					<dim>25</dim>
					<dim>35</dim>
				</port>
			</output>
		</layer>
		<layer id="141" name="data_add_1784717852" type="Const" version="opset1">
			<data element_type="f32" shape="1, 64, 1, 1" offset="3957160" size="256" />
			<output>
				<port id="0" precision="FP32">
					<dim>1</dim>
					<dim>64</dim>
					<dim>1</dim>
					<dim>1</dim>
				</port>
			</output>
		</layer>
		<layer id="142" name="StatefulPartitionedCall/feature_extractor/inception_v3/batch_normalization_119/FusedBatchNormV3/variance/Fused_Add_" type="Add" version="opset1">
			<data auto_broadcast="numpy" />
			<input>
				<port id="0" precision="FP32">
					<dim>1</dim>
					<dim>64</dim>
					<dim>25</dim>
					<dim>35</dim>
				</port>
				<port id="1" precision="FP32">
					<dim>1</dim>
					<dim>64</dim>
					<dim>1</dim>
					<dim>1</dim>
				</port>
			</input>
			<output>
				<port id="2" precision="FP32" names="StatefulPartitionedCall/feature_extractor/inception_v3/batch_normalization_119/FusedBatchNormV3:0">
					<dim>1</dim>
					<dim>64</dim>
					<dim>25</dim>
					<dim>35</dim>
				</port>
			</output>
		</layer>
		<layer id="143" name="StatefulPartitionedCall/feature_extractor/inception_v3/activation_119/Relu" type="ReLU" version="opset1">
			<input>
				<port id="0" precision="FP32">
					<dim>1</dim>
					<dim>64</dim>
					<dim>25</dim>
					<dim>35</dim>
				</port>
			</input>
			<output>
				<port id="1" precision="FP32" names="StatefulPartitionedCall/feature_extractor/inception_v3/activation_119/Relu:0">
					<dim>1</dim>
					<dim>64</dim>
					<dim>25</dim>
					<dim>35</dim>
				</port>
			</output>
		</layer>
		<layer id="144" name="StatefulPartitionedCall/feature_extractor/inception_v3/mixed2/concat" type="Concat" version="opset1">
			<data axis="1" />
			<input>
				<port id="0" precision="FP32">
					<dim>1</dim>
					<dim>64</dim>
					<dim>25</dim>
					<dim>35</dim>
				</port>
				<port id="1" precision="FP32">
					<dim>1</dim>
					<dim>64</dim>
					<dim>25</dim>
					<dim>35</dim>
				</port>
				<port id="2" precision="FP32">
					<dim>1</dim>
					<dim>96</dim>
					<dim>25</dim>
					<dim>35</dim>
				</port>
				<port id="3" precision="FP32">
					<dim>1</dim>
					<dim>64</dim>
					<dim>25</dim>
					<dim>35</dim>
				</port>
			</input>
			<output>
				<port id="4" precision="FP32" names="StatefulPartitionedCall/feature_extractor/inception_v3/mixed2/concat:0">
					<dim>1</dim>
					<dim>288</dim>
					<dim>25</dim>
					<dim>35</dim>
				</port>
			</output>
		</layer>
		<layer id="145" name="StatefulPartitionedCall/feature_extractor/inception_v3/batch_normalization_120/FusedBatchNormV3/mean/Fused_Mul__copy" type="Const" version="opset1">
			<data element_type="f32" shape="384, 288, 3, 3" offset="3957416" size="3981312" />
			<output>
				<port id="0" precision="FP32" names="StatefulPartitionedCall/feature_extractor/inception_v3/conv2d_120/Conv2D/ReadVariableOp:0">
					<dim>384</dim>
					<dim>288</dim>
					<dim>3</dim>
					<dim>3</dim>
				</port>
			</output>
		</layer>
		<layer id="146" name="StatefulPartitionedCall/feature_extractor/inception_v3/conv2d_120/Conv2D" type="Convolution" version="opset1">
			<data strides="2, 2" dilations="1, 1" pads_begin="0, 0" pads_end="0, 0" auto_pad="valid" />
			<input>
				<port id="0" precision="FP32">
					<dim>1</dim>
					<dim>288</dim>
					<dim>25</dim>
					<dim>35</dim>
				</port>
				<port id="1" precision="FP32">
					<dim>384</dim>
					<dim>288</dim>
					<dim>3</dim>
					<dim>3</dim>
				</port>
			</input>
			<output>
				<port id="2" precision="FP32">
					<dim>1</dim>
					<dim>384</dim>
					<dim>12</dim>
					<dim>17</dim>
				</port>
			</output>
		</layer>
		<layer id="147" name="data_add_1792717932" type="Const" version="opset1">
			<data element_type="f32" shape="1, 384, 1, 1" offset="7938728" size="1536" />
			<output>
				<port id="0" precision="FP32">
					<dim>1</dim>
					<dim>384</dim>
					<dim>1</dim>
					<dim>1</dim>
				</port>
			</output>
		</layer>
		<layer id="148" name="StatefulPartitionedCall/feature_extractor/inception_v3/batch_normalization_120/FusedBatchNormV3/variance/Fused_Add_" type="Add" version="opset1">
			<data auto_broadcast="numpy" />
			<input>
				<port id="0" precision="FP32">
					<dim>1</dim>
					<dim>384</dim>
					<dim>12</dim>
					<dim>17</dim>
				</port>
				<port id="1" precision="FP32">
					<dim>1</dim>
					<dim>384</dim>
					<dim>1</dim>
					<dim>1</dim>
				</port>
			</input>
			<output>
				<port id="2" precision="FP32" names="StatefulPartitionedCall/feature_extractor/inception_v3/batch_normalization_120/FusedBatchNormV3:0">
					<dim>1</dim>
					<dim>384</dim>
					<dim>12</dim>
					<dim>17</dim>
				</port>
			</output>
		</layer>
		<layer id="149" name="StatefulPartitionedCall/feature_extractor/inception_v3/activation_120/Relu" type="ReLU" version="opset1">
			<input>
				<port id="0" precision="FP32">
					<dim>1</dim>
					<dim>384</dim>
					<dim>12</dim>
					<dim>17</dim>
				</port>
			</input>
			<output>
				<port id="1" precision="FP32" names="StatefulPartitionedCall/feature_extractor/inception_v3/activation_120/Relu:0">
					<dim>1</dim>
					<dim>384</dim>
					<dim>12</dim>
					<dim>17</dim>
				</port>
			</output>
		</layer>
		<layer id="150" name="StatefulPartitionedCall/feature_extractor/inception_v3/batch_normalization_121/FusedBatchNormV3/mean/Fused_Mul__copy" type="Const" version="opset1">
			<data element_type="f32" shape="64, 288, 1, 1" offset="7940264" size="73728" />
			<output>
				<port id="0" precision="FP32" names="StatefulPartitionedCall/feature_extractor/inception_v3/conv2d_121/Conv2D/ReadVariableOp:0">
					<dim>64</dim>
					<dim>288</dim>
					<dim>1</dim>
					<dim>1</dim>
				</port>
			</output>
		</layer>
		<layer id="151" name="StatefulPartitionedCall/feature_extractor/inception_v3/conv2d_121/Conv2D" type="Convolution" version="opset1">
			<data strides="1, 1" dilations="1, 1" pads_begin="0, 0" pads_end="0, 0" auto_pad="same_upper" />
			<input>
				<port id="0" precision="FP32">
					<dim>1</dim>
					<dim>288</dim>
					<dim>25</dim>
					<dim>35</dim>
				</port>
				<port id="1" precision="FP32">
					<dim>64</dim>
					<dim>288</dim>
					<dim>1</dim>
					<dim>1</dim>
				</port>
			</input>
			<output>
				<port id="2" precision="FP32">
					<dim>1</dim>
					<dim>64</dim>
					<dim>25</dim>
					<dim>35</dim>
				</port>
			</output>
		</layer>
		<layer id="152" name="data_add_1790317908" type="Const" version="opset1">
			<data element_type="f32" shape="1, 64, 1, 1" offset="8013992" size="256" />
			<output>
				<port id="0" precision="FP32">
					<dim>1</dim>
					<dim>64</dim>
					<dim>1</dim>
					<dim>1</dim>
				</port>
			</output>
		</layer>
		<layer id="153" name="StatefulPartitionedCall/feature_extractor/inception_v3/batch_normalization_121/FusedBatchNormV3/variance/Fused_Add_" type="Add" version="opset1">
			<data auto_broadcast="numpy" />
			<input>
				<port id="0" precision="FP32">
					<dim>1</dim>
					<dim>64</dim>
					<dim>25</dim>
					<dim>35</dim>
				</port>
				<port id="1" precision="FP32">
					<dim>1</dim>
					<dim>64</dim>
					<dim>1</dim>
					<dim>1</dim>
				</port>
			</input>
			<output>
				<port id="2" precision="FP32" names="StatefulPartitionedCall/feature_extractor/inception_v3/batch_normalization_121/FusedBatchNormV3:0">
					<dim>1</dim>
					<dim>64</dim>
					<dim>25</dim>
					<dim>35</dim>
				</port>
			</output>
		</layer>
		<layer id="154" name="StatefulPartitionedCall/feature_extractor/inception_v3/activation_121/Relu" type="ReLU" version="opset1">
			<input>
				<port id="0" precision="FP32">
					<dim>1</dim>
					<dim>64</dim>
					<dim>25</dim>
					<dim>35</dim>
				</port>
			</input>
			<output>
				<port id="1" precision="FP32" names="StatefulPartitionedCall/feature_extractor/inception_v3/activation_121/Relu:0">
					<dim>1</dim>
					<dim>64</dim>
					<dim>25</dim>
					<dim>35</dim>
				</port>
			</output>
		</layer>
		<layer id="155" name="StatefulPartitionedCall/feature_extractor/inception_v3/batch_normalization_122/FusedBatchNormV3/mean/Fused_Mul__copy" type="Const" version="opset1">
			<data element_type="f32" shape="96, 64, 3, 3" offset="8014248" size="221184" />
			<output>
				<port id="0" precision="FP32" names="StatefulPartitionedCall/feature_extractor/inception_v3/conv2d_122/Conv2D/ReadVariableOp:0">
					<dim>96</dim>
					<dim>64</dim>
					<dim>3</dim>
					<dim>3</dim>
				</port>
			</output>
		</layer>
		<layer id="156" name="StatefulPartitionedCall/feature_extractor/inception_v3/conv2d_122/Conv2D" type="Convolution" version="opset1">
			<data strides="1, 1" dilations="1, 1" pads_begin="0, 0" pads_end="0, 0" auto_pad="same_upper" />
			<input>
				<port id="0" precision="FP32">
					<dim>1</dim>
					<dim>64</dim>
					<dim>25</dim>
					<dim>35</dim>
				</port>
				<port id="1" precision="FP32">
					<dim>96</dim>
					<dim>64</dim>
					<dim>3</dim>
					<dim>3</dim>
				</port>
			</input>
			<output>
				<port id="2" precision="FP32">
					<dim>1</dim>
					<dim>96</dim>
					<dim>25</dim>
					<dim>35</dim>
				</port>
			</output>
		</layer>
		<layer id="157" name="data_add_1791117916" type="Const" version="opset1">
			<data element_type="f32" shape="1, 96, 1, 1" offset="8235432" size="384" />
			<output>
				<port id="0" precision="FP32">
					<dim>1</dim>
					<dim>96</dim>
					<dim>1</dim>
					<dim>1</dim>
				</port>
			</output>
		</layer>
		<layer id="158" name="StatefulPartitionedCall/feature_extractor/inception_v3/batch_normalization_122/FusedBatchNormV3/variance/Fused_Add_" type="Add" version="opset1">
			<data auto_broadcast="numpy" />
			<input>
				<port id="0" precision="FP32">
					<dim>1</dim>
					<dim>96</dim>
					<dim>25</dim>
					<dim>35</dim>
				</port>
				<port id="1" precision="FP32">
					<dim>1</dim>
					<dim>96</dim>
					<dim>1</dim>
					<dim>1</dim>
				</port>
			</input>
			<output>
				<port id="2" precision="FP32" names="StatefulPartitionedCall/feature_extractor/inception_v3/batch_normalization_122/FusedBatchNormV3:0">
					<dim>1</dim>
					<dim>96</dim>
					<dim>25</dim>
					<dim>35</dim>
				</port>
			</output>
		</layer>
		<layer id="159" name="StatefulPartitionedCall/feature_extractor/inception_v3/activation_122/Relu" type="ReLU" version="opset1">
			<input>
				<port id="0" precision="FP32">
					<dim>1</dim>
					<dim>96</dim>
					<dim>25</dim>
					<dim>35</dim>
				</port>
			</input>
			<output>
				<port id="1" precision="FP32" names="StatefulPartitionedCall/feature_extractor/inception_v3/activation_122/Relu:0">
					<dim>1</dim>
					<dim>96</dim>
					<dim>25</dim>
					<dim>35</dim>
				</port>
			</output>
		</layer>
		<layer id="160" name="StatefulPartitionedCall/feature_extractor/inception_v3/batch_normalization_123/FusedBatchNormV3/mean/Fused_Mul__copy" type="Const" version="opset1">
			<data element_type="f32" shape="96, 96, 3, 3" offset="8235816" size="331776" />
			<output>
				<port id="0" precision="FP32" names="StatefulPartitionedCall/feature_extractor/inception_v3/conv2d_123/Conv2D/ReadVariableOp:0">
					<dim>96</dim>
					<dim>96</dim>
					<dim>3</dim>
					<dim>3</dim>
				</port>
			</output>
		</layer>
		<layer id="161" name="StatefulPartitionedCall/feature_extractor/inception_v3/conv2d_123/Conv2D" type="Convolution" version="opset1">
			<data strides="2, 2" dilations="1, 1" pads_begin="0, 0" pads_end="0, 0" auto_pad="valid" />
			<input>
				<port id="0" precision="FP32">
					<dim>1</dim>
					<dim>96</dim>
					<dim>25</dim>
					<dim>35</dim>
				</port>
				<port id="1" precision="FP32">
					<dim>96</dim>
					<dim>96</dim>
					<dim>3</dim>
					<dim>3</dim>
				</port>
			</input>
			<output>
				<port id="2" precision="FP32">
					<dim>1</dim>
					<dim>96</dim>
					<dim>12</dim>
					<dim>17</dim>
				</port>
			</output>
		</layer>
		<layer id="162" name="data_add_1791917924" type="Const" version="opset1">
			<data element_type="f32" shape="1, 96, 1, 1" offset="8567592" size="384" />
			<output>
				<port id="0" precision="FP32">
					<dim>1</dim>
					<dim>96</dim>
					<dim>1</dim>
					<dim>1</dim>
				</port>
			</output>
		</layer>
		<layer id="163" name="StatefulPartitionedCall/feature_extractor/inception_v3/batch_normalization_123/FusedBatchNormV3/variance/Fused_Add_" type="Add" version="opset1">
			<data auto_broadcast="numpy" />
			<input>
				<port id="0" precision="FP32">
					<dim>1</dim>
					<dim>96</dim>
					<dim>12</dim>
					<dim>17</dim>
				</port>
				<port id="1" precision="FP32">
					<dim>1</dim>
					<dim>96</dim>
					<dim>1</dim>
					<dim>1</dim>
				</port>
			</input>
			<output>
				<port id="2" precision="FP32" names="StatefulPartitionedCall/feature_extractor/inception_v3/batch_normalization_123/FusedBatchNormV3:0">
					<dim>1</dim>
					<dim>96</dim>
					<dim>12</dim>
					<dim>17</dim>
				</port>
			</output>
		</layer>
		<layer id="164" name="StatefulPartitionedCall/feature_extractor/inception_v3/activation_123/Relu" type="ReLU" version="opset1">
			<input>
				<port id="0" precision="FP32">
					<dim>1</dim>
					<dim>96</dim>
					<dim>12</dim>
					<dim>17</dim>
				</port>
			</input>
			<output>
				<port id="1" precision="FP32" names="StatefulPartitionedCall/feature_extractor/inception_v3/activation_123/Relu:0">
					<dim>1</dim>
					<dim>96</dim>
					<dim>12</dim>
					<dim>17</dim>
				</port>
			</output>
		</layer>
		<layer id="165" name="StatefulPartitionedCall/feature_extractor/inception_v3/max_pooling2d_6/MaxPool" type="MaxPool" version="opset8">
			<data strides="2, 2" dilations="1, 1" pads_begin="0, 0" pads_end="0, 0" kernel="3, 3" rounding_type="floor" auto_pad="valid" index_element_type="i64" axis="0" />
			<input>
				<port id="0" precision="FP32">
					<dim>1</dim>
					<dim>288</dim>
					<dim>25</dim>
					<dim>35</dim>
				</port>
			</input>
			<output>
				<port id="1" precision="FP32" names="StatefulPartitionedCall/feature_extractor/inception_v3/max_pooling2d_6/MaxPool:0">
					<dim>1</dim>
					<dim>288</dim>
					<dim>12</dim>
					<dim>17</dim>
				</port>
				<port id="2" precision="I64">
					<dim>1</dim>
					<dim>288</dim>
					<dim>12</dim>
					<dim>17</dim>
				</port>
			</output>
		</layer>
		<layer id="166" name="StatefulPartitionedCall/feature_extractor/inception_v3/mixed3/concat" type="Concat" version="opset1">
			<data axis="1" />
			<input>
				<port id="0" precision="FP32">
					<dim>1</dim>
					<dim>384</dim>
					<dim>12</dim>
					<dim>17</dim>
				</port>
				<port id="1" precision="FP32">
					<dim>1</dim>
					<dim>96</dim>
					<dim>12</dim>
					<dim>17</dim>
				</port>
				<port id="2" precision="FP32">
					<dim>1</dim>
					<dim>288</dim>
					<dim>12</dim>
					<dim>17</dim>
				</port>
			</input>
			<output>
				<port id="3" precision="FP32" names="StatefulPartitionedCall/feature_extractor/inception_v3/mixed3/concat:0">
					<dim>1</dim>
					<dim>768</dim>
					<dim>12</dim>
					<dim>17</dim>
				</port>
			</output>
		</layer>
		<layer id="167" name="StatefulPartitionedCall/feature_extractor/inception_v3/batch_normalization_124/FusedBatchNormV3/mean/Fused_Mul__copy" type="Const" version="opset1">
			<data element_type="f32" shape="192, 768, 1, 1" offset="8567976" size="589824" />
			<output>
				<port id="0" precision="FP32" names="StatefulPartitionedCall/feature_extractor/inception_v3/conv2d_124/Conv2D/ReadVariableOp:0">
					<dim>192</dim>
					<dim>768</dim>
					<dim>1</dim>
					<dim>1</dim>
				</port>
			</output>
		</layer>
		<layer id="168" name="StatefulPartitionedCall/feature_extractor/inception_v3/conv2d_124/Conv2D" type="Convolution" version="opset1">
			<data strides="1, 1" dilations="1, 1" pads_begin="0, 0" pads_end="0, 0" auto_pad="same_upper" />
			<input>
				<port id="0" precision="FP32">
					<dim>1</dim>
					<dim>768</dim>
					<dim>12</dim>
					<dim>17</dim>
				</port>
				<port id="1" precision="FP32">
					<dim>192</dim>
					<dim>768</dim>
					<dim>1</dim>
					<dim>1</dim>
				</port>
			</input>
			<output>
				<port id="2" precision="FP32">
					<dim>1</dim>
					<dim>192</dim>
					<dim>12</dim>
					<dim>17</dim>
				</port>
			</output>
		</layer>
		<layer id="169" name="data_add_1800718012" type="Const" version="opset1">
			<data element_type="f32" shape="1, 192, 1, 1" offset="9157800" size="768" />
			<output>
				<port id="0" precision="FP32">
					<dim>1</dim>
					<dim>192</dim>
					<dim>1</dim>
					<dim>1</dim>
				</port>
			</output>
		</layer>
		<layer id="170" name="StatefulPartitionedCall/feature_extractor/inception_v3/batch_normalization_124/FusedBatchNormV3/variance/Fused_Add_" type="Add" version="opset1">
			<data auto_broadcast="numpy" />
			<input>
				<port id="0" precision="FP32">
					<dim>1</dim>
					<dim>192</dim>
					<dim>12</dim>
					<dim>17</dim>
				</port>
				<port id="1" precision="FP32">
					<dim>1</dim>
					<dim>192</dim>
					<dim>1</dim>
					<dim>1</dim>
				</port>
			</input>
			<output>
				<port id="2" precision="FP32" names="StatefulPartitionedCall/feature_extractor/inception_v3/batch_normalization_124/FusedBatchNormV3:0">
					<dim>1</dim>
					<dim>192</dim>
					<dim>12</dim>
					<dim>17</dim>
				</port>
			</output>
		</layer>
		<layer id="171" name="StatefulPartitionedCall/feature_extractor/inception_v3/activation_124/Relu" type="ReLU" version="opset1">
			<input>
				<port id="0" precision="FP32">
					<dim>1</dim>
					<dim>192</dim>
					<dim>12</dim>
					<dim>17</dim>
				</port>
			</input>
			<output>
				<port id="1" precision="FP32" names="StatefulPartitionedCall/feature_extractor/inception_v3/activation_124/Relu:0">
					<dim>1</dim>
					<dim>192</dim>
					<dim>12</dim>
					<dim>17</dim>
				</port>
			</output>
		</layer>
		<layer id="172" name="StatefulPartitionedCall/feature_extractor/inception_v3/batch_normalization_125/FusedBatchNormV3/mean/Fused_Mul__copy" type="Const" version="opset1">
			<data element_type="f32" shape="128, 768, 1, 1" offset="9158568" size="393216" />
			<output>
				<port id="0" precision="FP32" names="StatefulPartitionedCall/feature_extractor/inception_v3/conv2d_125/Conv2D/ReadVariableOp:0">
					<dim>128</dim>
					<dim>768</dim>
					<dim>1</dim>
					<dim>1</dim>
				</port>
			</output>
		</layer>
		<layer id="173" name="StatefulPartitionedCall/feature_extractor/inception_v3/conv2d_125/Conv2D" type="Convolution" version="opset1">
			<data strides="1, 1" dilations="1, 1" pads_begin="0, 0" pads_end="0, 0" auto_pad="same_upper" />
			<input>
				<port id="0" precision="FP32">
					<dim>1</dim>
					<dim>768</dim>
					<dim>12</dim>
					<dim>17</dim>
				</port>
				<port id="1" precision="FP32">
					<dim>128</dim>
					<dim>768</dim>
					<dim>1</dim>
					<dim>1</dim>
				</port>
			</input>
			<output>
				<port id="2" precision="FP32">
					<dim>1</dim>
					<dim>128</dim>
					<dim>12</dim>
					<dim>17</dim>
				</port>
			</output>
		</layer>
		<layer id="174" name="data_add_1798317988" type="Const" version="opset1">
			<data element_type="f32" shape="1, 128, 1, 1" offset="9551784" size="512" />
			<output>
				<port id="0" precision="FP32">
					<dim>1</dim>
					<dim>128</dim>
					<dim>1</dim>
					<dim>1</dim>
				</port>
			</output>
		</layer>
		<layer id="175" name="StatefulPartitionedCall/feature_extractor/inception_v3/batch_normalization_125/FusedBatchNormV3/variance/Fused_Add_" type="Add" version="opset1">
			<data auto_broadcast="numpy" />
			<input>
				<port id="0" precision="FP32">
					<dim>1</dim>
					<dim>128</dim>
					<dim>12</dim>
					<dim>17</dim>
				</port>
				<port id="1" precision="FP32">
					<dim>1</dim>
					<dim>128</dim>
					<dim>1</dim>
					<dim>1</dim>
				</port>
			</input>
			<output>
				<port id="2" precision="FP32" names="StatefulPartitionedCall/feature_extractor/inception_v3/batch_normalization_125/FusedBatchNormV3:0">
					<dim>1</dim>
					<dim>128</dim>
					<dim>12</dim>
					<dim>17</dim>
				</port>
			</output>
		</layer>
		<layer id="176" name="StatefulPartitionedCall/feature_extractor/inception_v3/activation_125/Relu" type="ReLU" version="opset1">
			<input>
				<port id="0" precision="FP32">
					<dim>1</dim>
					<dim>128</dim>
					<dim>12</dim>
					<dim>17</dim>
				</port>
			</input>
			<output>
				<port id="1" precision="FP32" names="StatefulPartitionedCall/feature_extractor/inception_v3/activation_125/Relu:0">
					<dim>1</dim>
					<dim>128</dim>
					<dim>12</dim>
					<dim>17</dim>
				</port>
			</output>
		</layer>
		<layer id="177" name="StatefulPartitionedCall/feature_extractor/inception_v3/batch_normalization_126/FusedBatchNormV3/mean/Fused_Mul__copy" type="Const" version="opset1">
			<data element_type="f32" shape="128, 128, 1, 7" offset="9552296" size="458752" />
			<output>
				<port id="0" precision="FP32" names="StatefulPartitionedCall/feature_extractor/inception_v3/conv2d_126/Conv2D/ReadVariableOp:0">
					<dim>128</dim>
					<dim>128</dim>
					<dim>1</dim>
					<dim>7</dim>
				</port>
			</output>
		</layer>
		<layer id="178" name="StatefulPartitionedCall/feature_extractor/inception_v3/conv2d_126/Conv2D" type="Convolution" version="opset1">
			<data strides="1, 1" dilations="1, 1" pads_begin="0, 0" pads_end="0, 0" auto_pad="same_upper" />
			<input>
				<port id="0" precision="FP32">
					<dim>1</dim>
					<dim>128</dim>
					<dim>12</dim>
					<dim>17</dim>
				</port>
				<port id="1" precision="FP32">
					<dim>128</dim>
					<dim>128</dim>
					<dim>1</dim>
					<dim>7</dim>
				</port>
			</input>
			<output>
				<port id="2" precision="FP32">
					<dim>1</dim>
					<dim>128</dim>
					<dim>12</dim>
					<dim>17</dim>
				</port>
			</output>
		</layer>
		<layer id="179" name="data_add_1799117996" type="Const" version="opset1">
			<data element_type="f32" shape="1, 128, 1, 1" offset="10011048" size="512" />
			<output>
				<port id="0" precision="FP32">
					<dim>1</dim>
					<dim>128</dim>
					<dim>1</dim>
					<dim>1</dim>
				</port>
			</output>
		</layer>
		<layer id="180" name="StatefulPartitionedCall/feature_extractor/inception_v3/batch_normalization_126/FusedBatchNormV3/variance/Fused_Add_" type="Add" version="opset1">
			<data auto_broadcast="numpy" />
			<input>
				<port id="0" precision="FP32">
					<dim>1</dim>
					<dim>128</dim>
					<dim>12</dim>
					<dim>17</dim>
				</port>
				<port id="1" precision="FP32">
					<dim>1</dim>
					<dim>128</dim>
					<dim>1</dim>
					<dim>1</dim>
				</port>
			</input>
			<output>
				<port id="2" precision="FP32" names="StatefulPartitionedCall/feature_extractor/inception_v3/batch_normalization_126/FusedBatchNormV3:0">
					<dim>1</dim>
					<dim>128</dim>
					<dim>12</dim>
					<dim>17</dim>
				</port>
			</output>
		</layer>
		<layer id="181" name="StatefulPartitionedCall/feature_extractor/inception_v3/activation_126/Relu" type="ReLU" version="opset1">
			<input>
				<port id="0" precision="FP32">
					<dim>1</dim>
					<dim>128</dim>
					<dim>12</dim>
					<dim>17</dim>
				</port>
			</input>
			<output>
				<port id="1" precision="FP32" names="StatefulPartitionedCall/feature_extractor/inception_v3/activation_126/Relu:0">
					<dim>1</dim>
					<dim>128</dim>
					<dim>12</dim>
					<dim>17</dim>
				</port>
			</output>
		</layer>
		<layer id="182" name="StatefulPartitionedCall/feature_extractor/inception_v3/batch_normalization_127/FusedBatchNormV3/mean/Fused_Mul__copy" type="Const" version="opset1">
			<data element_type="f32" shape="192, 128, 7, 1" offset="10011560" size="688128" />
			<output>
				<port id="0" precision="FP32" names="StatefulPartitionedCall/feature_extractor/inception_v3/conv2d_127/Conv2D/ReadVariableOp:0">
					<dim>192</dim>
					<dim>128</dim>
					<dim>7</dim>
					<dim>1</dim>
				</port>
			</output>
		</layer>
		<layer id="183" name="StatefulPartitionedCall/feature_extractor/inception_v3/conv2d_127/Conv2D" type="Convolution" version="opset1">
			<data strides="1, 1" dilations="1, 1" pads_begin="0, 0" pads_end="0, 0" auto_pad="same_upper" />
			<input>
				<port id="0" precision="FP32">
					<dim>1</dim>
					<dim>128</dim>
					<dim>12</dim>
					<dim>17</dim>
				</port>
				<port id="1" precision="FP32">
					<dim>192</dim>
					<dim>128</dim>
					<dim>7</dim>
					<dim>1</dim>
				</port>
			</input>
			<output>
				<port id="2" precision="FP32">
					<dim>1</dim>
					<dim>192</dim>
					<dim>12</dim>
					<dim>17</dim>
				</port>
			</output>
		</layer>
		<layer id="184" name="data_add_1799918004" type="Const" version="opset1">
			<data element_type="f32" shape="1, 192, 1, 1" offset="10699688" size="768" />
			<output>
				<port id="0" precision="FP32">
					<dim>1</dim>
					<dim>192</dim>
					<dim>1</dim>
					<dim>1</dim>
				</port>
			</output>
		</layer>
		<layer id="185" name="StatefulPartitionedCall/feature_extractor/inception_v3/batch_normalization_127/FusedBatchNormV3/variance/Fused_Add_" type="Add" version="opset1">
			<data auto_broadcast="numpy" />
			<input>
				<port id="0" precision="FP32">
					<dim>1</dim>
					<dim>192</dim>
					<dim>12</dim>
					<dim>17</dim>
				</port>
				<port id="1" precision="FP32">
					<dim>1</dim>
					<dim>192</dim>
					<dim>1</dim>
					<dim>1</dim>
				</port>
			</input>
			<output>
				<port id="2" precision="FP32" names="StatefulPartitionedCall/feature_extractor/inception_v3/batch_normalization_127/FusedBatchNormV3:0">
					<dim>1</dim>
					<dim>192</dim>
					<dim>12</dim>
					<dim>17</dim>
				</port>
			</output>
		</layer>
		<layer id="186" name="StatefulPartitionedCall/feature_extractor/inception_v3/activation_127/Relu" type="ReLU" version="opset1">
			<input>
				<port id="0" precision="FP32">
					<dim>1</dim>
					<dim>192</dim>
					<dim>12</dim>
					<dim>17</dim>
				</port>
			</input>
			<output>
				<port id="1" precision="FP32" names="StatefulPartitionedCall/feature_extractor/inception_v3/activation_127/Relu:0">
					<dim>1</dim>
					<dim>192</dim>
					<dim>12</dim>
					<dim>17</dim>
				</port>
			</output>
		</layer>
		<layer id="187" name="StatefulPartitionedCall/feature_extractor/inception_v3/batch_normalization_128/FusedBatchNormV3/mean/Fused_Mul__copy" type="Const" version="opset1">
			<data element_type="f32" shape="128, 768, 1, 1" offset="10700456" size="393216" />
			<output>
				<port id="0" precision="FP32" names="StatefulPartitionedCall/feature_extractor/inception_v3/conv2d_128/Conv2D/ReadVariableOp:0">
					<dim>128</dim>
					<dim>768</dim>
					<dim>1</dim>
					<dim>1</dim>
				</port>
			</output>
		</layer>
		<layer id="188" name="StatefulPartitionedCall/feature_extractor/inception_v3/conv2d_128/Conv2D" type="Convolution" version="opset1">
			<data strides="1, 1" dilations="1, 1" pads_begin="0, 0" pads_end="0, 0" auto_pad="same_upper" />
			<input>
				<port id="0" precision="FP32">
					<dim>1</dim>
					<dim>768</dim>
					<dim>12</dim>
					<dim>17</dim>
				</port>
				<port id="1" precision="FP32">
					<dim>128</dim>
					<dim>768</dim>
					<dim>1</dim>
					<dim>1</dim>
				</port>
			</input>
			<output>
				<port id="2" precision="FP32">
					<dim>1</dim>
					<dim>128</dim>
					<dim>12</dim>
					<dim>17</dim>
				</port>
			</output>
		</layer>
		<layer id="189" name="data_add_1794317948" type="Const" version="opset1">
			<data element_type="f32" shape="1, 128, 1, 1" offset="11093672" size="512" />
			<output>
				<port id="0" precision="FP32">
					<dim>1</dim>
					<dim>128</dim>
					<dim>1</dim>
					<dim>1</dim>
				</port>
			</output>
		</layer>
		<layer id="190" name="StatefulPartitionedCall/feature_extractor/inception_v3/batch_normalization_128/FusedBatchNormV3/variance/Fused_Add_" type="Add" version="opset1">
			<data auto_broadcast="numpy" />
			<input>
				<port id="0" precision="FP32">
					<dim>1</dim>
					<dim>128</dim>
					<dim>12</dim>
					<dim>17</dim>
				</port>
				<port id="1" precision="FP32">
					<dim>1</dim>
					<dim>128</dim>
					<dim>1</dim>
					<dim>1</dim>
				</port>
			</input>
			<output>
				<port id="2" precision="FP32" names="StatefulPartitionedCall/feature_extractor/inception_v3/batch_normalization_128/FusedBatchNormV3:0">
					<dim>1</dim>
					<dim>128</dim>
					<dim>12</dim>
					<dim>17</dim>
				</port>
			</output>
		</layer>
		<layer id="191" name="StatefulPartitionedCall/feature_extractor/inception_v3/activation_128/Relu" type="ReLU" version="opset1">
			<input>
				<port id="0" precision="FP32">
					<dim>1</dim>
					<dim>128</dim>
					<dim>12</dim>
					<dim>17</dim>
				</port>
			</input>
			<output>
				<port id="1" precision="FP32" names="StatefulPartitionedCall/feature_extractor/inception_v3/activation_128/Relu:0">
					<dim>1</dim>
					<dim>128</dim>
					<dim>12</dim>
					<dim>17</dim>
				</port>
			</output>
		</layer>
		<layer id="192" name="StatefulPartitionedCall/feature_extractor/inception_v3/batch_normalization_129/FusedBatchNormV3/mean/Fused_Mul__copy" type="Const" version="opset1">
			<data element_type="f32" shape="128, 128, 7, 1" offset="11094184" size="458752" />
			<output>
				<port id="0" precision="FP32" names="StatefulPartitionedCall/feature_extractor/inception_v3/conv2d_129/Conv2D/ReadVariableOp:0">
					<dim>128</dim>
					<dim>128</dim>
					<dim>7</dim>
					<dim>1</dim>
				</port>
			</output>
		</layer>
		<layer id="193" name="StatefulPartitionedCall/feature_extractor/inception_v3/conv2d_129/Conv2D" type="Convolution" version="opset1">
			<data strides="1, 1" dilations="1, 1" pads_begin="0, 0" pads_end="0, 0" auto_pad="same_upper" />
			<input>
				<port id="0" precision="FP32">
					<dim>1</dim>
					<dim>128</dim>
					<dim>12</dim>
					<dim>17</dim>
				</port>
				<port id="1" precision="FP32">
					<dim>128</dim>
					<dim>128</dim>
					<dim>7</dim>
					<dim>1</dim>
				</port>
			</input>
			<output>
				<port id="2" precision="FP32">
					<dim>1</dim>
					<dim>128</dim>
					<dim>12</dim>
					<dim>17</dim>
				</port>
			</output>
		</layer>
		<layer id="194" name="data_add_1795117956" type="Const" version="opset1">
			<data element_type="f32" shape="1, 128, 1, 1" offset="11552936" size="512" />
			<output>
				<port id="0" precision="FP32">
					<dim>1</dim>
					<dim>128</dim>
					<dim>1</dim>
					<dim>1</dim>
				</port>
			</output>
		</layer>
		<layer id="195" name="StatefulPartitionedCall/feature_extractor/inception_v3/batch_normalization_129/FusedBatchNormV3/variance/Fused_Add_" type="Add" version="opset1">
			<data auto_broadcast="numpy" />
			<input>
				<port id="0" precision="FP32">
					<dim>1</dim>
					<dim>128</dim>
					<dim>12</dim>
					<dim>17</dim>
				</port>
				<port id="1" precision="FP32">
					<dim>1</dim>
					<dim>128</dim>
					<dim>1</dim>
					<dim>1</dim>
				</port>
			</input>
			<output>
				<port id="2" precision="FP32" names="StatefulPartitionedCall/feature_extractor/inception_v3/batch_normalization_129/FusedBatchNormV3:0">
					<dim>1</dim>
					<dim>128</dim>
					<dim>12</dim>
					<dim>17</dim>
				</port>
			</output>
		</layer>
		<layer id="196" name="StatefulPartitionedCall/feature_extractor/inception_v3/activation_129/Relu" type="ReLU" version="opset1">
			<input>
				<port id="0" precision="FP32">
					<dim>1</dim>
					<dim>128</dim>
					<dim>12</dim>
					<dim>17</dim>
				</port>
			</input>
			<output>
				<port id="1" precision="FP32" names="StatefulPartitionedCall/feature_extractor/inception_v3/activation_129/Relu:0">
					<dim>1</dim>
					<dim>128</dim>
					<dim>12</dim>
					<dim>17</dim>
				</port>
			</output>
		</layer>
		<layer id="197" name="StatefulPartitionedCall/feature_extractor/inception_v3/batch_normalization_130/FusedBatchNormV3/mean/Fused_Mul__copy" type="Const" version="opset1">
			<data element_type="f32" shape="128, 128, 1, 7" offset="11553448" size="458752" />
			<output>
				<port id="0" precision="FP32" names="StatefulPartitionedCall/feature_extractor/inception_v3/conv2d_130/Conv2D/ReadVariableOp:0">
					<dim>128</dim>
					<dim>128</dim>
					<dim>1</dim>
					<dim>7</dim>
				</port>
			</output>
		</layer>
		<layer id="198" name="StatefulPartitionedCall/feature_extractor/inception_v3/conv2d_130/Conv2D" type="Convolution" version="opset1">
			<data strides="1, 1" dilations="1, 1" pads_begin="0, 0" pads_end="0, 0" auto_pad="same_upper" />
			<input>
				<port id="0" precision="FP32">
					<dim>1</dim>
					<dim>128</dim>
					<dim>12</dim>
					<dim>17</dim>
				</port>
				<port id="1" precision="FP32">
					<dim>128</dim>
					<dim>128</dim>
					<dim>1</dim>
					<dim>7</dim>
				</port>
			</input>
			<output>
				<port id="2" precision="FP32">
					<dim>1</dim>
					<dim>128</dim>
					<dim>12</dim>
					<dim>17</dim>
				</port>
			</output>
		</layer>
		<layer id="199" name="data_add_1795917964" type="Const" version="opset1">
			<data element_type="f32" shape="1, 128, 1, 1" offset="12012200" size="512" />
			<output>
				<port id="0" precision="FP32">
					<dim>1</dim>
					<dim>128</dim>
					<dim>1</dim>
					<dim>1</dim>
				</port>
			</output>
		</layer>
		<layer id="200" name="StatefulPartitionedCall/feature_extractor/inception_v3/batch_normalization_130/FusedBatchNormV3/variance/Fused_Add_" type="Add" version="opset1">
			<data auto_broadcast="numpy" />
			<input>
				<port id="0" precision="FP32">
					<dim>1</dim>
					<dim>128</dim>
					<dim>12</dim>
					<dim>17</dim>
				</port>
				<port id="1" precision="FP32">
					<dim>1</dim>
					<dim>128</dim>
					<dim>1</dim>
					<dim>1</dim>
				</port>
			</input>
			<output>
				<port id="2" precision="FP32" names="StatefulPartitionedCall/feature_extractor/inception_v3/batch_normalization_130/FusedBatchNormV3:0">
					<dim>1</dim>
					<dim>128</dim>
					<dim>12</dim>
					<dim>17</dim>
				</port>
			</output>
		</layer>
		<layer id="201" name="StatefulPartitionedCall/feature_extractor/inception_v3/activation_130/Relu" type="ReLU" version="opset1">
			<input>
				<port id="0" precision="FP32">
					<dim>1</dim>
					<dim>128</dim>
					<dim>12</dim>
					<dim>17</dim>
				</port>
			</input>
			<output>
				<port id="1" precision="FP32" names="StatefulPartitionedCall/feature_extractor/inception_v3/activation_130/Relu:0">
					<dim>1</dim>
					<dim>128</dim>
					<dim>12</dim>
					<dim>17</dim>
				</port>
			</output>
		</layer>
		<layer id="202" name="StatefulPartitionedCall/feature_extractor/inception_v3/batch_normalization_131/FusedBatchNormV3/mean/Fused_Mul__copy" type="Const" version="opset1">
			<data element_type="f32" shape="128, 128, 7, 1" offset="12012712" size="458752" />
			<output>
				<port id="0" precision="FP32" names="StatefulPartitionedCall/feature_extractor/inception_v3/conv2d_131/Conv2D/ReadVariableOp:0">
					<dim>128</dim>
					<dim>128</dim>
					<dim>7</dim>
					<dim>1</dim>
				</port>
			</output>
		</layer>
		<layer id="203" name="StatefulPartitionedCall/feature_extractor/inception_v3/conv2d_131/Conv2D" type="Convolution" version="opset1">
			<data strides="1, 1" dilations="1, 1" pads_begin="0, 0" pads_end="0, 0" auto_pad="same_upper" />
			<input>
				<port id="0" precision="FP32">
					<dim>1</dim>
					<dim>128</dim>
					<dim>12</dim>
					<dim>17</dim>
				</port>
				<port id="1" precision="FP32">
					<dim>128</dim>
					<dim>128</dim>
					<dim>7</dim>
					<dim>1</dim>
				</port>
			</input>
			<output>
				<port id="2" precision="FP32">
					<dim>1</dim>
					<dim>128</dim>
					<dim>12</dim>
					<dim>17</dim>
				</port>
			</output>
		</layer>
		<layer id="204" name="data_add_1796717972" type="Const" version="opset1">
			<data element_type="f32" shape="1, 128, 1, 1" offset="12471464" size="512" />
			<output>
				<port id="0" precision="FP32">
					<dim>1</dim>
					<dim>128</dim>
					<dim>1</dim>
					<dim>1</dim>
				</port>
			</output>
		</layer>
		<layer id="205" name="StatefulPartitionedCall/feature_extractor/inception_v3/batch_normalization_131/FusedBatchNormV3/variance/Fused_Add_" type="Add" version="opset1">
			<data auto_broadcast="numpy" />
			<input>
				<port id="0" precision="FP32">
					<dim>1</dim>
					<dim>128</dim>
					<dim>12</dim>
					<dim>17</dim>
				</port>
				<port id="1" precision="FP32">
					<dim>1</dim>
					<dim>128</dim>
					<dim>1</dim>
					<dim>1</dim>
				</port>
			</input>
			<output>
				<port id="2" precision="FP32" names="StatefulPartitionedCall/feature_extractor/inception_v3/batch_normalization_131/FusedBatchNormV3:0">
					<dim>1</dim>
					<dim>128</dim>
					<dim>12</dim>
					<dim>17</dim>
				</port>
			</output>
		</layer>
		<layer id="206" name="StatefulPartitionedCall/feature_extractor/inception_v3/activation_131/Relu" type="ReLU" version="opset1">
			<input>
				<port id="0" precision="FP32">
					<dim>1</dim>
					<dim>128</dim>
					<dim>12</dim>
					<dim>17</dim>
				</port>
			</input>
			<output>
				<port id="1" precision="FP32" names="StatefulPartitionedCall/feature_extractor/inception_v3/activation_131/Relu:0">
					<dim>1</dim>
					<dim>128</dim>
					<dim>12</dim>
					<dim>17</dim>
				</port>
			</output>
		</layer>
		<layer id="207" name="StatefulPartitionedCall/feature_extractor/inception_v3/batch_normalization_132/FusedBatchNormV3/mean/Fused_Mul__copy" type="Const" version="opset1">
			<data element_type="f32" shape="192, 128, 1, 7" offset="12471976" size="688128" />
			<output>
				<port id="0" precision="FP32" names="StatefulPartitionedCall/feature_extractor/inception_v3/conv2d_132/Conv2D/ReadVariableOp:0">
					<dim>192</dim>
					<dim>128</dim>
					<dim>1</dim>
					<dim>7</dim>
				</port>
			</output>
		</layer>
		<layer id="208" name="StatefulPartitionedCall/feature_extractor/inception_v3/conv2d_132/Conv2D" type="Convolution" version="opset1">
			<data strides="1, 1" dilations="1, 1" pads_begin="0, 0" pads_end="0, 0" auto_pad="same_upper" />
			<input>
				<port id="0" precision="FP32">
					<dim>1</dim>
					<dim>128</dim>
					<dim>12</dim>
					<dim>17</dim>
				</port>
				<port id="1" precision="FP32">
					<dim>192</dim>
					<dim>128</dim>
					<dim>1</dim>
					<dim>7</dim>
				</port>
			</input>
			<output>
				<port id="2" precision="FP32">
					<dim>1</dim>
					<dim>192</dim>
					<dim>12</dim>
					<dim>17</dim>
				</port>
			</output>
		</layer>
		<layer id="209" name="data_add_1797517980" type="Const" version="opset1">
			<data element_type="f32" shape="1, 192, 1, 1" offset="13160104" size="768" />
			<output>
				<port id="0" precision="FP32">
					<dim>1</dim>
					<dim>192</dim>
					<dim>1</dim>
					<dim>1</dim>
				</port>
			</output>
		</layer>
		<layer id="210" name="StatefulPartitionedCall/feature_extractor/inception_v3/batch_normalization_132/FusedBatchNormV3/variance/Fused_Add_" type="Add" version="opset1">
			<data auto_broadcast="numpy" />
			<input>
				<port id="0" precision="FP32">
					<dim>1</dim>
					<dim>192</dim>
					<dim>12</dim>
					<dim>17</dim>
				</port>
				<port id="1" precision="FP32">
					<dim>1</dim>
					<dim>192</dim>
					<dim>1</dim>
					<dim>1</dim>
				</port>
			</input>
			<output>
				<port id="2" precision="FP32" names="StatefulPartitionedCall/feature_extractor/inception_v3/batch_normalization_132/FusedBatchNormV3:0">
					<dim>1</dim>
					<dim>192</dim>
					<dim>12</dim>
					<dim>17</dim>
				</port>
			</output>
		</layer>
		<layer id="211" name="StatefulPartitionedCall/feature_extractor/inception_v3/activation_132/Relu" type="ReLU" version="opset1">
			<input>
				<port id="0" precision="FP32">
					<dim>1</dim>
					<dim>192</dim>
					<dim>12</dim>
					<dim>17</dim>
				</port>
			</input>
			<output>
				<port id="1" precision="FP32" names="StatefulPartitionedCall/feature_extractor/inception_v3/activation_132/Relu:0">
					<dim>1</dim>
					<dim>192</dim>
					<dim>12</dim>
					<dim>17</dim>
				</port>
			</output>
		</layer>
		<layer id="212" name="StatefulPartitionedCall/feature_extractor/inception_v3/average_pooling2d_12/AvgPool" type="AvgPool" version="opset1">
			<data kernel="3, 3" strides="1, 1" pads_begin="0, 0" pads_end="0, 0" exclude-pad="true" auto_pad="same_upper" rounding_type="floor" />
			<input>
				<port id="0" precision="FP32">
					<dim>1</dim>
					<dim>768</dim>
					<dim>12</dim>
					<dim>17</dim>
				</port>
			</input>
			<output>
				<port id="1" precision="FP32" names="StatefulPartitionedCall/feature_extractor/inception_v3/average_pooling2d_12/AvgPool:0">
					<dim>1</dim>
					<dim>768</dim>
					<dim>12</dim>
					<dim>17</dim>
				</port>
			</output>
		</layer>
		<layer id="213" name="StatefulPartitionedCall/feature_extractor/inception_v3/batch_normalization_133/FusedBatchNormV3/mean/Fused_Mul__copy" type="Const" version="opset1">
			<data element_type="f32" shape="192, 768, 1, 1" offset="13160872" size="589824" />
			<output>
				<port id="0" precision="FP32" names="StatefulPartitionedCall/feature_extractor/inception_v3/conv2d_133/Conv2D/ReadVariableOp:0">
					<dim>192</dim>
					<dim>768</dim>
					<dim>1</dim>
					<dim>1</dim>
				</port>
			</output>
		</layer>
		<layer id="214" name="StatefulPartitionedCall/feature_extractor/inception_v3/conv2d_133/Conv2D" type="Convolution" version="opset1">
			<data strides="1, 1" dilations="1, 1" pads_begin="0, 0" pads_end="0, 0" auto_pad="same_upper" />
			<input>
				<port id="0" precision="FP32">
					<dim>1</dim>
					<dim>768</dim>
					<dim>12</dim>
					<dim>17</dim>
				</port>
				<port id="1" precision="FP32">
					<dim>192</dim>
					<dim>768</dim>
					<dim>1</dim>
					<dim>1</dim>
				</port>
			</input>
			<output>
				<port id="2" precision="FP32">
					<dim>1</dim>
					<dim>192</dim>
					<dim>12</dim>
					<dim>17</dim>
				</port>
			</output>
		</layer>
		<layer id="215" name="data_add_1793517940" type="Const" version="opset1">
			<data element_type="f32" shape="1, 192, 1, 1" offset="13750696" size="768" />
			<output>
				<port id="0" precision="FP32">
					<dim>1</dim>
					<dim>192</dim>
					<dim>1</dim>
					<dim>1</dim>
				</port>
			</output>
		</layer>
		<layer id="216" name="StatefulPartitionedCall/feature_extractor/inception_v3/batch_normalization_133/FusedBatchNormV3/variance/Fused_Add_" type="Add" version="opset1">
			<data auto_broadcast="numpy" />
			<input>
				<port id="0" precision="FP32">
					<dim>1</dim>
					<dim>192</dim>
					<dim>12</dim>
					<dim>17</dim>
				</port>
				<port id="1" precision="FP32">
					<dim>1</dim>
					<dim>192</dim>
					<dim>1</dim>
					<dim>1</dim>
				</port>
			</input>
			<output>
				<port id="2" precision="FP32" names="StatefulPartitionedCall/feature_extractor/inception_v3/batch_normalization_133/FusedBatchNormV3:0">
					<dim>1</dim>
					<dim>192</dim>
					<dim>12</dim>
					<dim>17</dim>
				</port>
			</output>
		</layer>
		<layer id="217" name="StatefulPartitionedCall/feature_extractor/inception_v3/activation_133/Relu" type="ReLU" version="opset1">
			<input>
				<port id="0" precision="FP32">
					<dim>1</dim>
					<dim>192</dim>
					<dim>12</dim>
					<dim>17</dim>
				</port>
			</input>
			<output>
				<port id="1" precision="FP32" names="StatefulPartitionedCall/feature_extractor/inception_v3/activation_133/Relu:0">
					<dim>1</dim>
					<dim>192</dim>
					<dim>12</dim>
					<dim>17</dim>
				</port>
			</output>
		</layer>
		<layer id="218" name="StatefulPartitionedCall/feature_extractor/inception_v3/mixed4/concat" type="Concat" version="opset1">
			<data axis="1" />
			<input>
				<port id="0" precision="FP32">
					<dim>1</dim>
					<dim>192</dim>
					<dim>12</dim>
					<dim>17</dim>
				</port>
				<port id="1" precision="FP32">
					<dim>1</dim>
					<dim>192</dim>
					<dim>12</dim>
					<dim>17</dim>
				</port>
				<port id="2" precision="FP32">
					<dim>1</dim>
					<dim>192</dim>
					<dim>12</dim>
					<dim>17</dim>
				</port>
				<port id="3" precision="FP32">
					<dim>1</dim>
					<dim>192</dim>
					<dim>12</dim>
					<dim>17</dim>
				</port>
			</input>
			<output>
				<port id="4" precision="FP32" names="StatefulPartitionedCall/feature_extractor/inception_v3/mixed4/concat:0">
					<dim>1</dim>
					<dim>768</dim>
					<dim>12</dim>
					<dim>17</dim>
				</port>
			</output>
		</layer>
		<layer id="219" name="StatefulPartitionedCall/feature_extractor/inception_v3/batch_normalization_134/FusedBatchNormV3/mean/Fused_Mul__copy" type="Const" version="opset1">
			<data element_type="f32" shape="192, 768, 1, 1" offset="13751464" size="589824" />
			<output>
				<port id="0" precision="FP32" names="StatefulPartitionedCall/feature_extractor/inception_v3/conv2d_134/Conv2D/ReadVariableOp:0">
					<dim>192</dim>
					<dim>768</dim>
					<dim>1</dim>
					<dim>1</dim>
				</port>
			</output>
		</layer>
		<layer id="220" name="StatefulPartitionedCall/feature_extractor/inception_v3/conv2d_134/Conv2D" type="Convolution" version="opset1">
			<data strides="1, 1" dilations="1, 1" pads_begin="0, 0" pads_end="0, 0" auto_pad="same_upper" />
			<input>
				<port id="0" precision="FP32">
					<dim>1</dim>
					<dim>768</dim>
					<dim>12</dim>
					<dim>17</dim>
				</port>
				<port id="1" precision="FP32">
					<dim>192</dim>
					<dim>768</dim>
					<dim>1</dim>
					<dim>1</dim>
				</port>
			</input>
			<output>
				<port id="2" precision="FP32">
					<dim>1</dim>
					<dim>192</dim>
					<dim>12</dim>
					<dim>17</dim>
				</port>
			</output>
		</layer>
		<layer id="221" name="data_add_1808718092" type="Const" version="opset1">
			<data element_type="f32" shape="1, 192, 1, 1" offset="14341288" size="768" />
			<output>
				<port id="0" precision="FP32">
					<dim>1</dim>
					<dim>192</dim>
					<dim>1</dim>
					<dim>1</dim>
				</port>
			</output>
		</layer>
		<layer id="222" name="StatefulPartitionedCall/feature_extractor/inception_v3/batch_normalization_134/FusedBatchNormV3/variance/Fused_Add_" type="Add" version="opset1">
			<data auto_broadcast="numpy" />
			<input>
				<port id="0" precision="FP32">
					<dim>1</dim>
					<dim>192</dim>
					<dim>12</dim>
					<dim>17</dim>
				</port>
				<port id="1" precision="FP32">
					<dim>1</dim>
					<dim>192</dim>
					<dim>1</dim>
					<dim>1</dim>
				</port>
			</input>
			<output>
				<port id="2" precision="FP32" names="StatefulPartitionedCall/feature_extractor/inception_v3/batch_normalization_134/FusedBatchNormV3:0">
					<dim>1</dim>
					<dim>192</dim>
					<dim>12</dim>
					<dim>17</dim>
				</port>
			</output>
		</layer>
		<layer id="223" name="StatefulPartitionedCall/feature_extractor/inception_v3/activation_134/Relu" type="ReLU" version="opset1">
			<input>
				<port id="0" precision="FP32">
					<dim>1</dim>
					<dim>192</dim>
					<dim>12</dim>
					<dim>17</dim>
				</port>
			</input>
			<output>
				<port id="1" precision="FP32" names="StatefulPartitionedCall/feature_extractor/inception_v3/activation_134/Relu:0">
					<dim>1</dim>
					<dim>192</dim>
					<dim>12</dim>
					<dim>17</dim>
				</port>
			</output>
		</layer>
		<layer id="224" name="StatefulPartitionedCall/feature_extractor/inception_v3/batch_normalization_135/FusedBatchNormV3/mean/Fused_Mul__copy" type="Const" version="opset1">
			<data element_type="f32" shape="160, 768, 1, 1" offset="14342056" size="491520" />
			<output>
				<port id="0" precision="FP32" names="StatefulPartitionedCall/feature_extractor/inception_v3/conv2d_135/Conv2D/ReadVariableOp:0">
					<dim>160</dim>
					<dim>768</dim>
					<dim>1</dim>
					<dim>1</dim>
				</port>
			</output>
		</layer>
		<layer id="225" name="StatefulPartitionedCall/feature_extractor/inception_v3/conv2d_135/Conv2D" type="Convolution" version="opset1">
			<data strides="1, 1" dilations="1, 1" pads_begin="0, 0" pads_end="0, 0" auto_pad="same_upper" />
			<input>
				<port id="0" precision="FP32">
					<dim>1</dim>
					<dim>768</dim>
					<dim>12</dim>
					<dim>17</dim>
				</port>
				<port id="1" precision="FP32">
					<dim>160</dim>
					<dim>768</dim>
					<dim>1</dim>
					<dim>1</dim>
				</port>
			</input>
			<output>
				<port id="2" precision="FP32">
					<dim>1</dim>
					<dim>160</dim>
					<dim>12</dim>
					<dim>17</dim>
				</port>
			</output>
		</layer>
		<layer id="226" name="data_add_1806318068" type="Const" version="opset1">
			<data element_type="f32" shape="1, 160, 1, 1" offset="14833576" size="640" />
			<output>
				<port id="0" precision="FP32">
					<dim>1</dim>
					<dim>160</dim>
					<dim>1</dim>
					<dim>1</dim>
				</port>
			</output>
		</layer>
		<layer id="227" name="StatefulPartitionedCall/feature_extractor/inception_v3/batch_normalization_135/FusedBatchNormV3/variance/Fused_Add_" type="Add" version="opset1">
			<data auto_broadcast="numpy" />
			<input>
				<port id="0" precision="FP32">
					<dim>1</dim>
					<dim>160</dim>
					<dim>12</dim>
					<dim>17</dim>
				</port>
				<port id="1" precision="FP32">
					<dim>1</dim>
					<dim>160</dim>
					<dim>1</dim>
					<dim>1</dim>
				</port>
			</input>
			<output>
				<port id="2" precision="FP32" names="StatefulPartitionedCall/feature_extractor/inception_v3/batch_normalization_135/FusedBatchNormV3:0">
					<dim>1</dim>
					<dim>160</dim>
					<dim>12</dim>
					<dim>17</dim>
				</port>
			</output>
		</layer>
		<layer id="228" name="StatefulPartitionedCall/feature_extractor/inception_v3/activation_135/Relu" type="ReLU" version="opset1">
			<input>
				<port id="0" precision="FP32">
					<dim>1</dim>
					<dim>160</dim>
					<dim>12</dim>
					<dim>17</dim>
				</port>
			</input>
			<output>
				<port id="1" precision="FP32" names="StatefulPartitionedCall/feature_extractor/inception_v3/activation_135/Relu:0">
					<dim>1</dim>
					<dim>160</dim>
					<dim>12</dim>
					<dim>17</dim>
				</port>
			</output>
		</layer>
		<layer id="229" name="StatefulPartitionedCall/feature_extractor/inception_v3/batch_normalization_136/FusedBatchNormV3/mean/Fused_Mul__copy" type="Const" version="opset1">
			<data element_type="f32" shape="160, 160, 1, 7" offset="14834216" size="716800" />
			<output>
				<port id="0" precision="FP32" names="StatefulPartitionedCall/feature_extractor/inception_v3/conv2d_136/Conv2D/ReadVariableOp:0">
					<dim>160</dim>
					<dim>160</dim>
					<dim>1</dim>
					<dim>7</dim>
				</port>
			</output>
		</layer>
		<layer id="230" name="StatefulPartitionedCall/feature_extractor/inception_v3/conv2d_136/Conv2D" type="Convolution" version="opset1">
			<data strides="1, 1" dilations="1, 1" pads_begin="0, 0" pads_end="0, 0" auto_pad="same_upper" />
			<input>
				<port id="0" precision="FP32">
					<dim>1</dim>
					<dim>160</dim>
					<dim>12</dim>
					<dim>17</dim>
				</port>
				<port id="1" precision="FP32">
					<dim>160</dim>
					<dim>160</dim>
					<dim>1</dim>
					<dim>7</dim>
				</port>
			</input>
			<output>
				<port id="2" precision="FP32">
					<dim>1</dim>
					<dim>160</dim>
					<dim>12</dim>
					<dim>17</dim>
				</port>
			</output>
		</layer>
		<layer id="231" name="data_add_1807118076" type="Const" version="opset1">
			<data element_type="f32" shape="1, 160, 1, 1" offset="15551016" size="640" />
			<output>
				<port id="0" precision="FP32">
					<dim>1</dim>
					<dim>160</dim>
					<dim>1</dim>
					<dim>1</dim>
				</port>
			</output>
		</layer>
		<layer id="232" name="StatefulPartitionedCall/feature_extractor/inception_v3/batch_normalization_136/FusedBatchNormV3/variance/Fused_Add_" type="Add" version="opset1">
			<data auto_broadcast="numpy" />
			<input>
				<port id="0" precision="FP32">
					<dim>1</dim>
					<dim>160</dim>
					<dim>12</dim>
					<dim>17</dim>
				</port>
				<port id="1" precision="FP32">
					<dim>1</dim>
					<dim>160</dim>
					<dim>1</dim>
					<dim>1</dim>
				</port>
			</input>
			<output>
				<port id="2" precision="FP32" names="StatefulPartitionedCall/feature_extractor/inception_v3/batch_normalization_136/FusedBatchNormV3:0">
					<dim>1</dim>
					<dim>160</dim>
					<dim>12</dim>
					<dim>17</dim>
				</port>
			</output>
		</layer>
		<layer id="233" name="StatefulPartitionedCall/feature_extractor/inception_v3/activation_136/Relu" type="ReLU" version="opset1">
			<input>
				<port id="0" precision="FP32">
					<dim>1</dim>
					<dim>160</dim>
					<dim>12</dim>
					<dim>17</dim>
				</port>
			</input>
			<output>
				<port id="1" precision="FP32" names="StatefulPartitionedCall/feature_extractor/inception_v3/activation_136/Relu:0">
					<dim>1</dim>
					<dim>160</dim>
					<dim>12</dim>
					<dim>17</dim>
				</port>
			</output>
		</layer>
		<layer id="234" name="StatefulPartitionedCall/feature_extractor/inception_v3/batch_normalization_137/FusedBatchNormV3/mean/Fused_Mul__copy" type="Const" version="opset1">
			<data element_type="f32" shape="192, 160, 7, 1" offset="15551656" size="860160" />
			<output>
				<port id="0" precision="FP32" names="StatefulPartitionedCall/feature_extractor/inception_v3/conv2d_137/Conv2D/ReadVariableOp:0">
					<dim>192</dim>
					<dim>160</dim>
					<dim>7</dim>
					<dim>1</dim>
				</port>
			</output>
		</layer>
		<layer id="235" name="StatefulPartitionedCall/feature_extractor/inception_v3/conv2d_137/Conv2D" type="Convolution" version="opset1">
			<data strides="1, 1" dilations="1, 1" pads_begin="0, 0" pads_end="0, 0" auto_pad="same_upper" />
			<input>
				<port id="0" precision="FP32">
					<dim>1</dim>
					<dim>160</dim>
					<dim>12</dim>
					<dim>17</dim>
				</port>
				<port id="1" precision="FP32">
					<dim>192</dim>
					<dim>160</dim>
					<dim>7</dim>
					<dim>1</dim>
				</port>
			</input>
			<output>
				<port id="2" precision="FP32">
					<dim>1</dim>
					<dim>192</dim>
					<dim>12</dim>
					<dim>17</dim>
				</port>
			</output>
		</layer>
		<layer id="236" name="data_add_1807918084" type="Const" version="opset1">
			<data element_type="f32" shape="1, 192, 1, 1" offset="16411816" size="768" />
			<output>
				<port id="0" precision="FP32">
					<dim>1</dim>
					<dim>192</dim>
					<dim>1</dim>
					<dim>1</dim>
				</port>
			</output>
		</layer>
		<layer id="237" name="StatefulPartitionedCall/feature_extractor/inception_v3/batch_normalization_137/FusedBatchNormV3/variance/Fused_Add_" type="Add" version="opset1">
			<data auto_broadcast="numpy" />
			<input>
				<port id="0" precision="FP32">
					<dim>1</dim>
					<dim>192</dim>
					<dim>12</dim>
					<dim>17</dim>
				</port>
				<port id="1" precision="FP32">
					<dim>1</dim>
					<dim>192</dim>
					<dim>1</dim>
					<dim>1</dim>
				</port>
			</input>
			<output>
				<port id="2" precision="FP32" names="StatefulPartitionedCall/feature_extractor/inception_v3/batch_normalization_137/FusedBatchNormV3:0">
					<dim>1</dim>
					<dim>192</dim>
					<dim>12</dim>
					<dim>17</dim>
				</port>
			</output>
		</layer>
		<layer id="238" name="StatefulPartitionedCall/feature_extractor/inception_v3/activation_137/Relu" type="ReLU" version="opset1">
			<input>
				<port id="0" precision="FP32">
					<dim>1</dim>
					<dim>192</dim>
					<dim>12</dim>
					<dim>17</dim>
				</port>
			</input>
			<output>
				<port id="1" precision="FP32" names="StatefulPartitionedCall/feature_extractor/inception_v3/activation_137/Relu:0">
					<dim>1</dim>
					<dim>192</dim>
					<dim>12</dim>
					<dim>17</dim>
				</port>
			</output>
		</layer>
		<layer id="239" name="StatefulPartitionedCall/feature_extractor/inception_v3/batch_normalization_138/FusedBatchNormV3/mean/Fused_Mul__copy" type="Const" version="opset1">
			<data element_type="f32" shape="160, 768, 1, 1" offset="16412584" size="491520" />
			<output>
				<port id="0" precision="FP32" names="StatefulPartitionedCall/feature_extractor/inception_v3/conv2d_138/Conv2D/ReadVariableOp:0">
					<dim>160</dim>
					<dim>768</dim>
					<dim>1</dim>
					<dim>1</dim>
				</port>
			</output>
		</layer>
		<layer id="240" name="StatefulPartitionedCall/feature_extractor/inception_v3/conv2d_138/Conv2D" type="Convolution" version="opset1">
			<data strides="1, 1" dilations="1, 1" pads_begin="0, 0" pads_end="0, 0" auto_pad="same_upper" />
			<input>
				<port id="0" precision="FP32">
					<dim>1</dim>
					<dim>768</dim>
					<dim>12</dim>
					<dim>17</dim>
				</port>
				<port id="1" precision="FP32">
					<dim>160</dim>
					<dim>768</dim>
					<dim>1</dim>
					<dim>1</dim>
				</port>
			</input>
			<output>
				<port id="2" precision="FP32">
					<dim>1</dim>
					<dim>160</dim>
					<dim>12</dim>
					<dim>17</dim>
				</port>
			</output>
		</layer>
		<layer id="241" name="data_add_1802318028" type="Const" version="opset1">
			<data element_type="f32" shape="1, 160, 1, 1" offset="16904104" size="640" />
			<output>
				<port id="0" precision="FP32">
					<dim>1</dim>
					<dim>160</dim>
					<dim>1</dim>
					<dim>1</dim>
				</port>
			</output>
		</layer>
		<layer id="242" name="StatefulPartitionedCall/feature_extractor/inception_v3/batch_normalization_138/FusedBatchNormV3/variance/Fused_Add_" type="Add" version="opset1">
			<data auto_broadcast="numpy" />
			<input>
				<port id="0" precision="FP32">
					<dim>1</dim>
					<dim>160</dim>
					<dim>12</dim>
					<dim>17</dim>
				</port>
				<port id="1" precision="FP32">
					<dim>1</dim>
					<dim>160</dim>
					<dim>1</dim>
					<dim>1</dim>
				</port>
			</input>
			<output>
				<port id="2" precision="FP32" names="StatefulPartitionedCall/feature_extractor/inception_v3/batch_normalization_138/FusedBatchNormV3:0">
					<dim>1</dim>
					<dim>160</dim>
					<dim>12</dim>
					<dim>17</dim>
				</port>
			</output>
		</layer>
		<layer id="243" name="StatefulPartitionedCall/feature_extractor/inception_v3/activation_138/Relu" type="ReLU" version="opset1">
			<input>
				<port id="0" precision="FP32">
					<dim>1</dim>
					<dim>160</dim>
					<dim>12</dim>
					<dim>17</dim>
				</port>
			</input>
			<output>
				<port id="1" precision="FP32" names="StatefulPartitionedCall/feature_extractor/inception_v3/activation_138/Relu:0">
					<dim>1</dim>
					<dim>160</dim>
					<dim>12</dim>
					<dim>17</dim>
				</port>
			</output>
		</layer>
		<layer id="244" name="StatefulPartitionedCall/feature_extractor/inception_v3/batch_normalization_139/FusedBatchNormV3/mean/Fused_Mul__copy" type="Const" version="opset1">
			<data element_type="f32" shape="160, 160, 7, 1" offset="16904744" size="716800" />
			<output>
				<port id="0" precision="FP32" names="StatefulPartitionedCall/feature_extractor/inception_v3/conv2d_139/Conv2D/ReadVariableOp:0">
					<dim>160</dim>
					<dim>160</dim>
					<dim>7</dim>
					<dim>1</dim>
				</port>
			</output>
		</layer>
		<layer id="245" name="StatefulPartitionedCall/feature_extractor/inception_v3/conv2d_139/Conv2D" type="Convolution" version="opset1">
			<data strides="1, 1" dilations="1, 1" pads_begin="0, 0" pads_end="0, 0" auto_pad="same_upper" />
			<input>
				<port id="0" precision="FP32">
					<dim>1</dim>
					<dim>160</dim>
					<dim>12</dim>
					<dim>17</dim>
				</port>
				<port id="1" precision="FP32">
					<dim>160</dim>
					<dim>160</dim>
					<dim>7</dim>
					<dim>1</dim>
				</port>
			</input>
			<output>
				<port id="2" precision="FP32">
					<dim>1</dim>
					<dim>160</dim>
					<dim>12</dim>
					<dim>17</dim>
				</port>
			</output>
		</layer>
		<layer id="246" name="data_add_1803118036" type="Const" version="opset1">
			<data element_type="f32" shape="1, 160, 1, 1" offset="17621544" size="640" />
			<output>
				<port id="0" precision="FP32">
					<dim>1</dim>
					<dim>160</dim>
					<dim>1</dim>
					<dim>1</dim>
				</port>
			</output>
		</layer>
		<layer id="247" name="StatefulPartitionedCall/feature_extractor/inception_v3/batch_normalization_139/FusedBatchNormV3/variance/Fused_Add_" type="Add" version="opset1">
			<data auto_broadcast="numpy" />
			<input>
				<port id="0" precision="FP32">
					<dim>1</dim>
					<dim>160</dim>
					<dim>12</dim>
					<dim>17</dim>
				</port>
				<port id="1" precision="FP32">
					<dim>1</dim>
					<dim>160</dim>
					<dim>1</dim>
					<dim>1</dim>
				</port>
			</input>
			<output>
				<port id="2" precision="FP32" names="StatefulPartitionedCall/feature_extractor/inception_v3/batch_normalization_139/FusedBatchNormV3:0">
					<dim>1</dim>
					<dim>160</dim>
					<dim>12</dim>
					<dim>17</dim>
				</port>
			</output>
		</layer>
		<layer id="248" name="StatefulPartitionedCall/feature_extractor/inception_v3/activation_139/Relu" type="ReLU" version="opset1">
			<input>
				<port id="0" precision="FP32">
					<dim>1</dim>
					<dim>160</dim>
					<dim>12</dim>
					<dim>17</dim>
				</port>
			</input>
			<output>
				<port id="1" precision="FP32" names="StatefulPartitionedCall/feature_extractor/inception_v3/activation_139/Relu:0">
					<dim>1</dim>
					<dim>160</dim>
					<dim>12</dim>
					<dim>17</dim>
				</port>
			</output>
		</layer>
		<layer id="249" name="StatefulPartitionedCall/feature_extractor/inception_v3/batch_normalization_140/FusedBatchNormV3/mean/Fused_Mul__copy" type="Const" version="opset1">
			<data element_type="f32" shape="160, 160, 1, 7" offset="17622184" size="716800" />
			<output>
				<port id="0" precision="FP32" names="StatefulPartitionedCall/feature_extractor/inception_v3/conv2d_140/Conv2D/ReadVariableOp:0">
					<dim>160</dim>
					<dim>160</dim>
					<dim>1</dim>
					<dim>7</dim>
				</port>
			</output>
		</layer>
		<layer id="250" name="StatefulPartitionedCall/feature_extractor/inception_v3/conv2d_140/Conv2D" type="Convolution" version="opset1">
			<data strides="1, 1" dilations="1, 1" pads_begin="0, 0" pads_end="0, 0" auto_pad="same_upper" />
			<input>
				<port id="0" precision="FP32">
					<dim>1</dim>
					<dim>160</dim>
					<dim>12</dim>
					<dim>17</dim>
				</port>
				<port id="1" precision="FP32">
					<dim>160</dim>
					<dim>160</dim>
					<dim>1</dim>
					<dim>7</dim>
				</port>
			</input>
			<output>
				<port id="2" precision="FP32">
					<dim>1</dim>
					<dim>160</dim>
					<dim>12</dim>
					<dim>17</dim>
				</port>
			</output>
		</layer>
		<layer id="251" name="data_add_1803918044" type="Const" version="opset1">
			<data element_type="f32" shape="1, 160, 1, 1" offset="18338984" size="640" />
			<output>
				<port id="0" precision="FP32">
					<dim>1</dim>
					<dim>160</dim>
					<dim>1</dim>
					<dim>1</dim>
				</port>
			</output>
		</layer>
		<layer id="252" name="StatefulPartitionedCall/feature_extractor/inception_v3/batch_normalization_140/FusedBatchNormV3/variance/Fused_Add_" type="Add" version="opset1">
			<data auto_broadcast="numpy" />
			<input>
				<port id="0" precision="FP32">
					<dim>1</dim>
					<dim>160</dim>
					<dim>12</dim>
					<dim>17</dim>
				</port>
				<port id="1" precision="FP32">
					<dim>1</dim>
					<dim>160</dim>
					<dim>1</dim>
					<dim>1</dim>
				</port>
			</input>
			<output>
				<port id="2" precision="FP32" names="StatefulPartitionedCall/feature_extractor/inception_v3/batch_normalization_140/FusedBatchNormV3:0">
					<dim>1</dim>
					<dim>160</dim>
					<dim>12</dim>
					<dim>17</dim>
				</port>
			</output>
		</layer>
		<layer id="253" name="StatefulPartitionedCall/feature_extractor/inception_v3/activation_140/Relu" type="ReLU" version="opset1">
			<input>
				<port id="0" precision="FP32">
					<dim>1</dim>
					<dim>160</dim>
					<dim>12</dim>
					<dim>17</dim>
				</port>
			</input>
			<output>
				<port id="1" precision="FP32" names="StatefulPartitionedCall/feature_extractor/inception_v3/activation_140/Relu:0">
					<dim>1</dim>
					<dim>160</dim>
					<dim>12</dim>
					<dim>17</dim>
				</port>
			</output>
		</layer>
		<layer id="254" name="StatefulPartitionedCall/feature_extractor/inception_v3/batch_normalization_141/FusedBatchNormV3/mean/Fused_Mul__copy" type="Const" version="opset1">
			<data element_type="f32" shape="160, 160, 7, 1" offset="18339624" size="716800" />
			<output>
				<port id="0" precision="FP32" names="StatefulPartitionedCall/feature_extractor/inception_v3/conv2d_141/Conv2D/ReadVariableOp:0">
					<dim>160</dim>
					<dim>160</dim>
					<dim>7</dim>
					<dim>1</dim>
				</port>
			</output>
		</layer>
		<layer id="255" name="StatefulPartitionedCall/feature_extractor/inception_v3/conv2d_141/Conv2D" type="Convolution" version="opset1">
			<data strides="1, 1" dilations="1, 1" pads_begin="0, 0" pads_end="0, 0" auto_pad="same_upper" />
			<input>
				<port id="0" precision="FP32">
					<dim>1</dim>
					<dim>160</dim>
					<dim>12</dim>
					<dim>17</dim>
				</port>
				<port id="1" precision="FP32">
					<dim>160</dim>
					<dim>160</dim>
					<dim>7</dim>
					<dim>1</dim>
				</port>
			</input>
			<output>
				<port id="2" precision="FP32">
					<dim>1</dim>
					<dim>160</dim>
					<dim>12</dim>
					<dim>17</dim>
				</port>
			</output>
		</layer>
		<layer id="256" name="data_add_1804718052" type="Const" version="opset1">
			<data element_type="f32" shape="1, 160, 1, 1" offset="19056424" size="640" />
			<output>
				<port id="0" precision="FP32">
					<dim>1</dim>
					<dim>160</dim>
					<dim>1</dim>
					<dim>1</dim>
				</port>
			</output>
		</layer>
		<layer id="257" name="StatefulPartitionedCall/feature_extractor/inception_v3/batch_normalization_141/FusedBatchNormV3/variance/Fused_Add_" type="Add" version="opset1">
			<data auto_broadcast="numpy" />
			<input>
				<port id="0" precision="FP32">
					<dim>1</dim>
					<dim>160</dim>
					<dim>12</dim>
					<dim>17</dim>
				</port>
				<port id="1" precision="FP32">
					<dim>1</dim>
					<dim>160</dim>
					<dim>1</dim>
					<dim>1</dim>
				</port>
			</input>
			<output>
				<port id="2" precision="FP32" names="StatefulPartitionedCall/feature_extractor/inception_v3/batch_normalization_141/FusedBatchNormV3:0">
					<dim>1</dim>
					<dim>160</dim>
					<dim>12</dim>
					<dim>17</dim>
				</port>
			</output>
		</layer>
		<layer id="258" name="StatefulPartitionedCall/feature_extractor/inception_v3/activation_141/Relu" type="ReLU" version="opset1">
			<input>
				<port id="0" precision="FP32">
					<dim>1</dim>
					<dim>160</dim>
					<dim>12</dim>
					<dim>17</dim>
				</port>
			</input>
			<output>
				<port id="1" precision="FP32" names="StatefulPartitionedCall/feature_extractor/inception_v3/activation_141/Relu:0">
					<dim>1</dim>
					<dim>160</dim>
					<dim>12</dim>
					<dim>17</dim>
				</port>
			</output>
		</layer>
		<layer id="259" name="StatefulPartitionedCall/feature_extractor/inception_v3/batch_normalization_142/FusedBatchNormV3/mean/Fused_Mul__copy" type="Const" version="opset1">
			<data element_type="f32" shape="192, 160, 1, 7" offset="19057064" size="860160" />
			<output>
				<port id="0" precision="FP32" names="StatefulPartitionedCall/feature_extractor/inception_v3/conv2d_142/Conv2D/ReadVariableOp:0">
					<dim>192</dim>
					<dim>160</dim>
					<dim>1</dim>
					<dim>7</dim>
				</port>
			</output>
		</layer>
		<layer id="260" name="StatefulPartitionedCall/feature_extractor/inception_v3/conv2d_142/Conv2D" type="Convolution" version="opset1">
			<data strides="1, 1" dilations="1, 1" pads_begin="0, 0" pads_end="0, 0" auto_pad="same_upper" />
			<input>
				<port id="0" precision="FP32">
					<dim>1</dim>
					<dim>160</dim>
					<dim>12</dim>
					<dim>17</dim>
				</port>
				<port id="1" precision="FP32">
					<dim>192</dim>
					<dim>160</dim>
					<dim>1</dim>
					<dim>7</dim>
				</port>
			</input>
			<output>
				<port id="2" precision="FP32">
					<dim>1</dim>
					<dim>192</dim>
					<dim>12</dim>
					<dim>17</dim>
				</port>
			</output>
		</layer>
		<layer id="261" name="data_add_1805518060" type="Const" version="opset1">
			<data element_type="f32" shape="1, 192, 1, 1" offset="19917224" size="768" />
			<output>
				<port id="0" precision="FP32">
					<dim>1</dim>
					<dim>192</dim>
					<dim>1</dim>
					<dim>1</dim>
				</port>
			</output>
		</layer>
		<layer id="262" name="StatefulPartitionedCall/feature_extractor/inception_v3/batch_normalization_142/FusedBatchNormV3/variance/Fused_Add_" type="Add" version="opset1">
			<data auto_broadcast="numpy" />
			<input>
				<port id="0" precision="FP32">
					<dim>1</dim>
					<dim>192</dim>
					<dim>12</dim>
					<dim>17</dim>
				</port>
				<port id="1" precision="FP32">
					<dim>1</dim>
					<dim>192</dim>
					<dim>1</dim>
					<dim>1</dim>
				</port>
			</input>
			<output>
				<port id="2" precision="FP32" names="StatefulPartitionedCall/feature_extractor/inception_v3/batch_normalization_142/FusedBatchNormV3:0">
					<dim>1</dim>
					<dim>192</dim>
					<dim>12</dim>
					<dim>17</dim>
				</port>
			</output>
		</layer>
		<layer id="263" name="StatefulPartitionedCall/feature_extractor/inception_v3/activation_142/Relu" type="ReLU" version="opset1">
			<input>
				<port id="0" precision="FP32">
					<dim>1</dim>
					<dim>192</dim>
					<dim>12</dim>
					<dim>17</dim>
				</port>
			</input>
			<output>
				<port id="1" precision="FP32" names="StatefulPartitionedCall/feature_extractor/inception_v3/activation_142/Relu:0">
					<dim>1</dim>
					<dim>192</dim>
					<dim>12</dim>
					<dim>17</dim>
				</port>
			</output>
		</layer>
		<layer id="264" name="StatefulPartitionedCall/feature_extractor/inception_v3/average_pooling2d_13/AvgPool" type="AvgPool" version="opset1">
			<data kernel="3, 3" strides="1, 1" pads_begin="0, 0" pads_end="0, 0" exclude-pad="true" auto_pad="same_upper" rounding_type="floor" />
			<input>
				<port id="0" precision="FP32">
					<dim>1</dim>
					<dim>768</dim>
					<dim>12</dim>
					<dim>17</dim>
				</port>
			</input>
			<output>
				<port id="1" precision="FP32" names="StatefulPartitionedCall/feature_extractor/inception_v3/average_pooling2d_13/AvgPool:0">
					<dim>1</dim>
					<dim>768</dim>
					<dim>12</dim>
					<dim>17</dim>
				</port>
			</output>
		</layer>
		<layer id="265" name="StatefulPartitionedCall/feature_extractor/inception_v3/batch_normalization_143/FusedBatchNormV3/mean/Fused_Mul__copy" type="Const" version="opset1">
			<data element_type="f32" shape="192, 768, 1, 1" offset="19917992" size="589824" />
			<output>
				<port id="0" precision="FP32" names="StatefulPartitionedCall/feature_extractor/inception_v3/conv2d_143/Conv2D/ReadVariableOp:0">
					<dim>192</dim>
					<dim>768</dim>
					<dim>1</dim>
					<dim>1</dim>
				</port>
			</output>
		</layer>
		<layer id="266" name="StatefulPartitionedCall/feature_extractor/inception_v3/conv2d_143/Conv2D" type="Convolution" version="opset1">
			<data strides="1, 1" dilations="1, 1" pads_begin="0, 0" pads_end="0, 0" auto_pad="same_upper" />
			<input>
				<port id="0" precision="FP32">
					<dim>1</dim>
					<dim>768</dim>
					<dim>12</dim>
					<dim>17</dim>
				</port>
				<port id="1" precision="FP32">
					<dim>192</dim>
					<dim>768</dim>
					<dim>1</dim>
					<dim>1</dim>
				</port>
			</input>
			<output>
				<port id="2" precision="FP32">
					<dim>1</dim>
					<dim>192</dim>
					<dim>12</dim>
					<dim>17</dim>
				</port>
			</output>
		</layer>
		<layer id="267" name="data_add_1801518020" type="Const" version="opset1">
			<data element_type="f32" shape="1, 192, 1, 1" offset="20507816" size="768" />
			<output>
				<port id="0" precision="FP32">
					<dim>1</dim>
					<dim>192</dim>
					<dim>1</dim>
					<dim>1</dim>
				</port>
			</output>
		</layer>
		<layer id="268" name="StatefulPartitionedCall/feature_extractor/inception_v3/batch_normalization_143/FusedBatchNormV3/variance/Fused_Add_" type="Add" version="opset1">
			<data auto_broadcast="numpy" />
			<input>
				<port id="0" precision="FP32">
					<dim>1</dim>
					<dim>192</dim>
					<dim>12</dim>
					<dim>17</dim>
				</port>
				<port id="1" precision="FP32">
					<dim>1</dim>
					<dim>192</dim>
					<dim>1</dim>
					<dim>1</dim>
				</port>
			</input>
			<output>
				<port id="2" precision="FP32" names="StatefulPartitionedCall/feature_extractor/inception_v3/batch_normalization_143/FusedBatchNormV3:0">
					<dim>1</dim>
					<dim>192</dim>
					<dim>12</dim>
					<dim>17</dim>
				</port>
			</output>
		</layer>
…
				<port id="2" precision="FP32" names="StatefulPartitionedCall/feature_extractor/inception_v3/batch_normalization_184/FusedBatchNormV3:0">
					<dim>1</dim>
					<dim>384</dim>
					<dim>5</dim>
					<dim>8</dim>
				</port>
			</output>
		</layer>
		<layer id="486" name="StatefulPartitionedCall/feature_extractor/inception_v3/activation_184/Relu" type="ReLU" version="opset1">
			<input>
				<port id="0" precision="FP32">
					<dim>1</dim>
					<dim>384</dim>
					<dim>5</dim>
					<dim>8</dim>
				</port>
			</input>
			<output>
				<port id="1" precision="FP32" names="StatefulPartitionedCall/feature_extractor/inception_v3/activation_184/Relu:0">
					<dim>1</dim>
					<dim>384</dim>
					<dim>5</dim>
					<dim>8</dim>
				</port>
			</output>
		</layer>
		<layer id="487" name="StatefulPartitionedCall/feature_extractor/inception_v3/batch_normalization_185/FusedBatchNormV3/mean/Fused_Mul__copy" type="Const" version="opset1">
			<data element_type="f32" shape="384, 384, 1, 3" offset="81957800" size="1769472" />
			<output>
				<port id="0" precision="FP32" names="StatefulPartitionedCall/feature_extractor/inception_v3/conv2d_185/Conv2D/ReadVariableOp:0">
					<dim>384</dim>
					<dim>384</dim>
					<dim>1</dim>
					<dim>3</dim>
				</port>
			</output>
		</layer>
		<layer id="488" name="StatefulPartitionedCall/feature_extractor/inception_v3/conv2d_185/Conv2D" type="Convolution" version="opset1">
			<data strides="1, 1" dilations="1, 1" pads_begin="0, 0" pads_end="0, 0" auto_pad="same_upper" />
			<input>
				<port id="0" precision="FP32">
					<dim>1</dim>
					<dim>384</dim>
					<dim>5</dim>
					<dim>8</dim>
				</port>
				<port id="1" precision="FP32">
					<dim>384</dim>
					<dim>384</dim>
					<dim>1</dim>
					<dim>3</dim>
				</port>
			</input>
			<output>
				<port id="2" precision="FP32">
					<dim>1</dim>
					<dim>384</dim>
					<dim>5</dim>
					<dim>8</dim>
				</port>
			</output>
		</layer>
		<layer id="489" name="data_add_1840718412" type="Const" version="opset1">
			<data element_type="f32" shape="1, 384, 1, 1" offset="83727272" size="1536" />
			<output>
				<port id="0" precision="FP32">
					<dim>1</dim>
					<dim>384</dim>
					<dim>1</dim>
					<dim>1</dim>
				</port>
			</output>
		</layer>
		<layer id="490" name="StatefulPartitionedCall/feature_extractor/inception_v3/batch_normalization_185/FusedBatchNormV3/variance/Fused_Add_" type="Add" version="opset1">
			<data auto_broadcast="numpy" />
			<input>
				<port id="0" precision="FP32">
					<dim>1</dim>
					<dim>384</dim>
					<dim>5</dim>
					<dim>8</dim>
				</port>
				<port id="1" precision="FP32">
					<dim>1</dim>
					<dim>384</dim>
					<dim>1</dim>
					<dim>1</dim>
				</port>
			</input>
			<output>
				<port id="2" precision="FP32" names="StatefulPartitionedCall/feature_extractor/inception_v3/batch_normalization_185/FusedBatchNormV3:0">
					<dim>1</dim>
					<dim>384</dim>
					<dim>5</dim>
					<dim>8</dim>
				</port>
			</output>
		</layer>
		<layer id="491" name="StatefulPartitionedCall/feature_extractor/inception_v3/activation_185/Relu" type="ReLU" version="opset1">
			<input>
				<port id="0" precision="FP32">
					<dim>1</dim>
					<dim>384</dim>
					<dim>5</dim>
					<dim>8</dim>
				</port>
			</input>
			<output>
				<port id="1" precision="FP32" names="StatefulPartitionedCall/feature_extractor/inception_v3/activation_185/Relu:0">
					<dim>1</dim>
					<dim>384</dim>
					<dim>5</dim>
					<dim>8</dim>
				</port>
			</output>
		</layer>
		<layer id="492" name="StatefulPartitionedCall/feature_extractor/inception_v3/batch_normalization_186/FusedBatchNormV3/mean/Fused_Mul__copy" type="Const" version="opset1">
			<data element_type="f32" shape="384, 384, 3, 1" offset="83728808" size="1769472" />
			<output>
				<port id="0" precision="FP32" names="StatefulPartitionedCall/feature_extractor/inception_v3/conv2d_186/Conv2D/ReadVariableOp:0">
					<dim>384</dim>
					<dim>384</dim>
					<dim>3</dim>
					<dim>1</dim>
				</port>
			</output>
		</layer>
		<layer id="493" name="StatefulPartitionedCall/feature_extractor/inception_v3/conv2d_186/Conv2D" type="Convolution" version="opset1">
			<data strides="1, 1" dilations="1, 1" pads_begin="0, 0" pads_end="0, 0" auto_pad="same_upper" />
			<input>
				<port id="0" precision="FP32">
					<dim>1</dim>
					<dim>384</dim>
					<dim>5</dim>
					<dim>8</dim>
				</port>
				<port id="1" precision="FP32">
					<dim>384</dim>
					<dim>384</dim>
					<dim>3</dim>
					<dim>1</dim>
				</port>
			</input>
			<output>
				<port id="2" precision="FP32">
					<dim>1</dim>
					<dim>384</dim>
					<dim>5</dim>
					<dim>8</dim>
				</port>
			</output>
		</layer>
		<layer id="494" name="data_add_1839918404" type="Const" version="opset1">
			<data element_type="f32" shape="1, 384, 1, 1" offset="85498280" size="1536" />
			<output>
				<port id="0" precision="FP32">
					<dim>1</dim>
					<dim>384</dim>
					<dim>1</dim>
					<dim>1</dim>
				</port>
			</output>
		</layer>
		<layer id="495" name="StatefulPartitionedCall/feature_extractor/inception_v3/batch_normalization_186/FusedBatchNormV3/variance/Fused_Add_" type="Add" version="opset1">
			<data auto_broadcast="numpy" />
			<input>
				<port id="0" precision="FP32">
					<dim>1</dim>
					<dim>384</dim>
					<dim>5</dim>
					<dim>8</dim>
				</port>
				<port id="1" precision="FP32">
					<dim>1</dim>
					<dim>384</dim>
					<dim>1</dim>
					<dim>1</dim>
				</port>
			</input>
			<output>
				<port id="2" precision="FP32" names="StatefulPartitionedCall/feature_extractor/inception_v3/batch_normalization_186/FusedBatchNormV3:0">
					<dim>1</dim>
					<dim>384</dim>
					<dim>5</dim>
					<dim>8</dim>
				</port>
			</output>
		</layer>
		<layer id="496" name="StatefulPartitionedCall/feature_extractor/inception_v3/activation_186/Relu" type="ReLU" version="opset1">
			<input>
				<port id="0" precision="FP32">
					<dim>1</dim>
					<dim>384</dim>
					<dim>5</dim>
					<dim>8</dim>
				</port>
			</input>
			<output>
				<port id="1" precision="FP32" names="StatefulPartitionedCall/feature_extractor/inception_v3/activation_186/Relu:0">
					<dim>1</dim>
					<dim>384</dim>
					<dim>5</dim>
					<dim>8</dim>
				</port>
			</output>
		</layer>
		<layer id="497" name="StatefulPartitionedCall/feature_extractor/inception_v3/concatenate_3/concat" type="Concat" version="opset1">
			<data axis="1" />
			<input>
				<port id="0" precision="FP32">
					<dim>1</dim>
					<dim>384</dim>
					<dim>5</dim>
					<dim>8</dim>
				</port>
				<port id="1" precision="FP32">
					<dim>1</dim>
					<dim>384</dim>
					<dim>5</dim>
					<dim>8</dim>
				</port>
			</input>
			<output>
				<port id="2" precision="FP32" names="StatefulPartitionedCall/feature_extractor/inception_v3/concatenate_3/concat:0">
					<dim>1</dim>
					<dim>768</dim>
					<dim>5</dim>
					<dim>8</dim>
				</port>
			</output>
		</layer>
		<layer id="498" name="StatefulPartitionedCall/feature_extractor/inception_v3/average_pooling2d_17/AvgPool" type="AvgPool" version="opset1">
			<data kernel="3, 3" strides="1, 1" pads_begin="0, 0" pads_end="0, 0" exclude-pad="true" auto_pad="same_upper" rounding_type="floor" />
			<input>
				<port id="0" precision="FP32">
					<dim>1</dim>
					<dim>2048</dim>
					<dim>5</dim>
					<dim>8</dim>
				</port>
			</input>
			<output>
				<port id="1" precision="FP32" names="StatefulPartitionedCall/feature_extractor/inception_v3/average_pooling2d_17/AvgPool:0">
					<dim>1</dim>
					<dim>2048</dim>
					<dim>5</dim>
					<dim>8</dim>
				</port>
			</output>
		</layer>
		<layer id="499" name="StatefulPartitionedCall/feature_extractor/inception_v3/batch_normalization_187/FusedBatchNormV3/mean/Fused_Mul__copy" type="Const" version="opset1">
			<data element_type="f32" shape="192, 2048, 1, 1" offset="85499816" size="1572864" />
			<output>
				<port id="0" precision="FP32" names="StatefulPartitionedCall/feature_extractor/inception_v3/conv2d_187/Conv2D/ReadVariableOp:0">
					<dim>192</dim>
					<dim>2048</dim>
					<dim>1</dim>
					<dim>1</dim>
				</port>
			</output>
		</layer>
		<layer id="500" name="StatefulPartitionedCall/feature_extractor/inception_v3/conv2d_187/Conv2D" type="Convolution" version="opset1">
			<data strides="1, 1" dilations="1, 1" pads_begin="0, 0" pads_end="0, 0" auto_pad="same_upper" />
			<input>
				<port id="0" precision="FP32">
					<dim>1</dim>
					<dim>2048</dim>
					<dim>5</dim>
					<dim>8</dim>
				</port>
				<port id="1" precision="FP32">
					<dim>192</dim>
					<dim>2048</dim>
					<dim>1</dim>
					<dim>1</dim>
				</port>
			</input>
			<output>
				<port id="2" precision="FP32">
					<dim>1</dim>
					<dim>192</dim>
					<dim>5</dim>
					<dim>8</dim>
				</port>
			</output>
		</layer>
		<layer id="501" name="data_add_1837518380" type="Const" version="opset1">
			<data element_type="f32" shape="1, 192, 1, 1" offset="87072680" size="768" />
			<output>
				<port id="0" precision="FP32">
					<dim>1</dim>
					<dim>192</dim>
					<dim>1</dim>
					<dim>1</dim>
				</port>
			</output>
		</layer>
		<layer id="502" name="StatefulPartitionedCall/feature_extractor/inception_v3/batch_normalization_187/FusedBatchNormV3/variance/Fused_Add_" type="Add" version="opset1">
			<data auto_broadcast="numpy" />
			<input>
				<port id="0" precision="FP32">
					<dim>1</dim>
					<dim>192</dim>
					<dim>5</dim>
					<dim>8</dim>
				</port>
				<port id="1" precision="FP32">
					<dim>1</dim>
					<dim>192</dim>
					<dim>1</dim>
					<dim>1</dim>
				</port>
			</input>
			<output>
				<port id="2" precision="FP32" names="StatefulPartitionedCall/feature_extractor/inception_v3/batch_normalization_187/FusedBatchNormV3:0">
					<dim>1</dim>
					<dim>192</dim>
					<dim>5</dim>
					<dim>8</dim>
				</port>
			</output>
		</layer>
		<layer id="503" name="StatefulPartitionedCall/feature_extractor/inception_v3/activation_187/Relu" type="ReLU" version="opset1">
			<input>
				<port id="0" precision="FP32">
					<dim>1</dim>
					<dim>192</dim>
					<dim>5</dim>
					<dim>8</dim>
				</port>
			</input>
			<output>
				<port id="1" precision="FP32" names="StatefulPartitionedCall/feature_extractor/inception_v3/activation_187/Relu:0">
					<dim>1</dim>
					<dim>192</dim>
					<dim>5</dim>
					<dim>8</dim>
				</port>
			</output>
		</layer>
		<layer id="504" name="StatefulPartitionedCall/feature_extractor/inception_v3/mixed10/concat" type="Concat" version="opset1">
			<data axis="1" />
			<input>
				<port id="0" precision="FP32">
					<dim>1</dim>
					<dim>320</dim>
					<dim>5</dim>
					<dim>8</dim>
				</port>
				<port id="1" precision="FP32">
					<dim>1</dim>
					<dim>768</dim>
					<dim>5</dim>
					<dim>8</dim>
				</port>
				<port id="2" precision="FP32">
					<dim>1</dim>
					<dim>768</dim>
					<dim>5</dim>
					<dim>8</dim>
				</port>
				<port id="3" precision="FP32">
					<dim>1</dim>
					<dim>192</dim>
					<dim>5</dim>
					<dim>8</dim>
				</port>
			</input>
			<output>
				<port id="4" precision="FP32">
					<dim>1</dim>
					<dim>2048</dim>
					<dim>5</dim>
					<dim>8</dim>
				</port>
			</output>
		</layer>
		<layer id="505" name="StatefulPartitionedCall/feature_extractor/inception_v3/global_average_pooling2d_1/MeanGather2389228243" type="Const" version="opset1">
			<data element_type="i64" shape="2" offset="87073448" size="16" />
			<output>
				<port id="0" precision="I64">
					<dim>2</dim>
				</port>
			</output>
		</layer>
		<layer id="506" name="StatefulPartitionedCall/feature_extractor/inception_v3/global_average_pooling2d_1/Mean" type="ReduceMean" version="opset1">
			<data keep_dims="false" />
			<input>
				<port id="0" precision="FP32">
					<dim>1</dim>
					<dim>2048</dim>
					<dim>5</dim>
					<dim>8</dim>
				</port>
				<port id="1" precision="I64">
					<dim>2</dim>
				</port>
			</input>
			<output>
				<port id="2" precision="FP32" names="Func/StatefulPartitionedCall/output/_471:0,Identity:0,StatefulPartitionedCall/Identity:0,StatefulPartitionedCall/feature_extractor/inception_v3/global_average_pooling2d_1/Mean:0">
					<dim>1</dim>
					<dim>2048</dim>
				</port>
			</output>
		</layer>
		<layer id="507" name="Func/StatefulPartitionedCall/output/_471:0" type="Result" version="opset1">
			<input>
				<port id="0" precision="FP32">
					<dim>1</dim>
					<dim>2048</dim>
				</port>
			</input>
		</layer>
	</layers>
	<edges>
		<edge from-layer="0" from-port="0" to-layer="2" to-port="0" />
		<edge from-layer="1" from-port="0" to-layer="2" to-port="1" />
		<edge from-layer="2" from-port="2" to-layer="4" to-port="0" />
		<edge from-layer="3" from-port="0" to-layer="4" to-port="1" />
		<edge from-layer="4" from-port="2" to-layer="6" to-port="0" />
		<edge from-layer="5" from-port="0" to-layer="6" to-port="1" />
		<edge from-layer="6" from-port="2" to-layer="8" to-port="0" />
		<edge from-layer="7" from-port="0" to-layer="8" to-port="1" />
		<edge from-layer="8" from-port="2" to-layer="10" to-port="0" />
		<edge from-layer="9" from-port="0" to-layer="10" to-port="1" />
		<edge from-layer="10" from-port="2" to-layer="11" to-port="0" />
		<edge from-layer="11" from-port="1" to-layer="13" to-port="0" />
		<edge from-layer="12" from-port="0" to-layer="13" to-port="1" />
		<edge from-layer="13" from-port="2" to-layer="15" to-port="0" />
		<edge from-layer="14" from-port="0" to-layer="15" to-port="1" />
		<edge from-layer="15" from-port="2" to-layer="16" to-port="0" />
		<edge from-layer="16" from-port="1" to-layer="18" to-port="0" />
		<edge from-layer="17" from-port="0" to-layer="18" to-port="1" />
		<edge from-layer="18" from-port="2" to-layer="20" to-port="0" />
		<edge from-layer="19" from-port="0" to-layer="20" to-port="1" />
		<edge from-layer="20" from-port="2" to-layer="21" to-port="0" />
		<edge from-layer="21" from-port="1" to-layer="22" to-port="0" />
		<edge from-layer="22" from-port="1" to-layer="24" to-port="0" />
		<edge from-layer="23" from-port="0" to-layer="24" to-port="1" />
		<edge from-layer="24" from-port="2" to-layer="26" to-port="0" />
		<edge from-layer="25" from-port="0" to-layer="26" to-port="1" />
		<edge from-layer="26" from-port="2" to-layer="27" to-port="0" />
		<edge from-layer="27" from-port="1" to-layer="29" to-port="0" />
		<edge from-layer="28" from-port="0" to-layer="29" to-port="1" />
		<edge from-layer="29" from-port="2" to-layer="31" to-port="0" />
		<edge from-layer="30" from-port="0" to-layer="31" to-port="1" />
		<edge from-layer="31" from-port="2" to-layer="32" to-port="0" />
		<edge from-layer="32" from-port="1" to-layer="33" to-port="0" />
		<edge from-layer="33" from-port="1" to-layer="35" to-port="0" />
		<edge from-layer="33" from-port="1" to-layer="40" to-port="0" />
		<edge from-layer="33" from-port="1" to-layer="50" to-port="0" />
		<edge from-layer="33" from-port="1" to-layer="64" to-port="0" />
		<edge from-layer="34" from-port="0" to-layer="35" to-port="1" />
		<edge from-layer="35" from-port="2" to-layer="37" to-port="0" />
		<edge from-layer="36" from-port="0" to-layer="37" to-port="1" />
		<edge from-layer="37" from-port="2" to-layer="38" to-port="0" />
		<edge from-layer="38" from-port="1" to-layer="70" to-port="0" />
		<edge from-layer="39" from-port="0" to-layer="40" to-port="1" />
		<edge from-layer="40" from-port="2" to-layer="42" to-port="0" />
		<edge from-layer="41" from-port="0" to-layer="42" to-port="1" />
		<edge from-layer="42" from-port="2" to-layer="43" to-port="0" />
		<edge from-layer="43" from-port="1" to-layer="45" to-port="0" />
		<edge from-layer="44" from-port="0" to-layer="45" to-port="1" />
		<edge from-layer="45" from-port="2" to-layer="47" to-port="0" />
		<edge from-layer="46" from-port="0" to-layer="47" to-port="1" />
		<edge from-layer="47" from-port="2" to-layer="48" to-port="0" />
		<edge from-layer="48" from-port="1" to-layer="70" to-port="1" />
		<edge from-layer="49" from-port="0" to-layer="50" to-port="1" />
		<edge from-layer="50" from-port="2" to-layer="52" to-port="0" />
		<edge from-layer="51" from-port="0" to-layer="52" to-port="1" />
		<edge from-layer="52" from-port="2" to-layer="53" to-port="0" />
		<edge from-layer="53" from-port="1" to-layer="55" to-port="0" />
		<edge from-layer="54" from-port="0" to-layer="55" to-port="1" />
		<edge from-layer="55" from-port="2" to-layer="57" to-port="0" />
		<edge from-layer="56" from-port="0" to-layer="57" to-port="1" />
		<edge from-layer="57" from-port="2" to-layer="58" to-port="0" />
		<edge from-layer="58" from-port="1" to-layer="60" to-port="0" />
		<edge from-layer="59" from-port="0" to-layer="60" to-port="1" />
		<edge from-layer="60" from-port="2" to-layer="62" to-port="0" />
		<edge from-layer="61" from-port="0" to-layer="62" to-port="1" />
		<edge from-layer="62" from-port="2" to-layer="63" to-port="0" />
		<edge from-layer="63" from-port="1" to-layer="70" to-port="2" />
		<edge from-layer="64" from-port="1" to-layer="66" to-port="0" />
		<edge from-layer="65" from-port="0" to-layer="66" to-port="1" />
		<edge from-layer="66" from-port="2" to-layer="68" to-port="0" />
		<edge from-layer="67" from-port="0" to-layer="68" to-port="1" />
		<edge from-layer="68" from-port="2" to-layer="69" to-port="0" />
		<edge from-layer="69" from-port="1" to-layer="70" to-port="3" />
		<edge from-layer="70" from-port="4" to-layer="72" to-port="0" />
		<edge from-layer="70" from-port="4" to-layer="77" to-port="0" />
		<edge from-layer="70" from-port="4" to-layer="87" to-port="0" />
		<edge from-layer="70" from-port="4" to-layer="101" to-port="0" />
		<edge from-layer="71" from-port="0" to-layer="72" to-port="1" />
		<edge from-layer="72" from-port="2" to-layer="74" to-port="0" />
		<edge from-layer="73" from-port="0" to-layer="74" to-port="1" />
		<edge from-layer="74" from-port="2" to-layer="75" to-port="0" />
		<edge from-layer="75" from-port="1" to-layer="107" to-port="0" />
		<edge from-layer="76" from-port="0" to-layer="77" to-port="1" />
		<edge from-layer="77" from-port="2" to-layer="79" to-port="0" />
		<edge from-layer="78" from-port="0" to-layer="79" to-port="1" />
		<edge from-layer="79" from-port="2" to-layer="80" to-port="0" />
		<edge from-layer="80" from-port="1" to-layer="82" to-port="0" />
		<edge from-layer="81" from-port="0" to-layer="82" to-port="1" />
		<edge from-layer="82" from-port="2" to-layer="84" to-port="0" />
		<edge from-layer="83" from-port="0" to-layer="84" to-port="1" />
		<edge from-layer="84" from-port="2" to-layer="85" to-port="0" />
		<edge from-layer="85" from-port="1" to-layer="107" to-port="1" />
		<edge from-layer="86" from-port="0" to-layer="87" to-port="1" />
		<edge from-layer="87" from-port="2" to-layer="89" to-port="0" />
		<edge from-layer="88" from-port="0" to-layer="89" to-port="1" />
		<edge from-layer="89" from-port="2" to-layer="90" to-port="0" />
		<edge from-layer="90" from-port="1" to-layer="92" to-port="0" />
		<edge from-layer="91" from-port="0" to-layer="92" to-port="1" />
		<edge from-layer="92" from-port="2" to-layer="94" to-port="0" />
		<edge from-layer="93" from-port="0" to-layer="94" to-port="1" />
		<edge from-layer="94" from-port="2" to-layer="95" to-port="0" />
		<edge from-layer="95" from-port="1" to-layer="97" to-port="0" />
		<edge from-layer="96" from-port="0" to-layer="97" to-port="1" />
		<edge from-layer="97" from-port="2" to-layer="99" to-port="0" />
		<edge from-layer="98" from-port="0" to-layer="99" to-port="1" />
		<edge from-layer="99" from-port="2" to-layer="100" to-port="0" />
		<edge from-layer="100" from-port="1" to-layer="107" to-port="2" />
		<edge from-layer="101" from-port="1" to-layer="103" to-port="0" />
		<edge from-layer="102" from-port="0" to-layer="103" to-port="1" />
		<edge from-layer="103" from-port="2" to-layer="105" to-port="0" />
		<edge from-layer="104" from-port="0" to-layer="105" to-port="1" />
		<edge from-layer="105" from-port="2" to-layer="106" to-port="0" />
		<edge from-layer="106" from-port="1" to-layer="107" to-port="3" />
		<edge from-layer="107" from-port="4" to-layer="109" to-port="0" />
		<edge from-layer="107" from-port="4" to-layer="114" to-port="0" />
		<edge from-layer="107" from-port="4" to-layer="124" to-port="0" />
		<edge from-layer="107" from-port="4" to-layer="138" to-port="0" />
		<edge from-layer="108" from-port="0" to-layer="109" to-port="1" />
		<edge from-layer="109" from-port="2" to-layer="111" to-port="0" />
		<edge from-layer="110" from-port="0" to-layer="111" to-port="1" />
		<edge from-layer="111" from-port="2" to-layer="112" to-port="0" />
		<edge from-layer="112" from-port="1" to-layer="144" to-port="0" />
		<edge from-layer="113" from-port="0" to-layer="114" to-port="1" />
		<edge from-layer="114" from-port="2" to-layer="116" to-port="0" />
		<edge from-layer="115" from-port="0" to-layer="116" to-port="1" />
		<edge from-layer="116" from-port="2" to-layer="117" to-port="0" />
		<edge from-layer="117" from-port="1" to-layer="119" to-port="0" />
		<edge from-layer="118" from-port="0" to-layer="119" to-port="1" />
		<edge from-layer="119" from-port="2" to-layer="121" to-port="0" />
		<edge from-layer="120" from-port="0" to-layer="121" to-port="1" />
		<edge from-layer="121" from-port="2" to-layer="122" to-port="0" />
		<edge from-layer="122" from-port="1" to-layer="144" to-port="1" />
		<edge from-layer="123" from-port="0" to-layer="124" to-port="1" />
		<edge from-layer="124" from-port="2" to-layer="126" to-port="0" />
		<edge from-layer="125" from-port="0" to-layer="126" to-port="1" />
		<edge from-layer="126" from-port="2" to-layer="127" to-port="0" />
		<edge from-layer="127" from-port="1" to-layer="129" to-port="0" />
		<edge from-layer="128" from-port="0" to-layer="129" to-port="1" />
		<edge from-layer="129" from-port="2" to-layer="131" to-port="0" />
		<edge from-layer="130" from-port="0" to-layer="131" to-port="1" />
		<edge from-layer="131" from-port="2" to-layer="132" to-port="0" />
		<edge from-layer="132" from-port="1" to-layer="134" to-port="0" />
		<edge from-layer="133" from-port="0" to-layer="134" to-port="1" />
		<edge from-layer="134" from-port="2" to-layer="136" to-port="0" />
		<edge from-layer="135" from-port="0" to-layer="136" to-port="1" />
		<edge from-layer="136" from-port="2" to-layer="137" to-port="0" />
		<edge from-layer="137" from-port="1" to-layer="144" to-port="2" />
		<edge from-layer="138" from-port="1" to-layer="140" to-port="0" />
		<edge from-layer="139" from-port="0" to-layer="140" to-port="1" />
		<edge from-layer="140" from-port="2" to-layer="142" to-port="0" />
		<edge from-layer="141" from-port="0" to-layer="142" to-port="1" />
		<edge from-layer="142" from-port="2" to-layer="143" to-port="0" />
		<edge from-layer="143" from-port="1" to-layer="144" to-port="3" />
		<edge from-layer="144" from-port="4" to-layer="146" to-port="0" />
		<edge from-layer="144" from-port="4" to-layer="151" to-port="0" />
		<edge from-layer="144" from-port="4" to-layer="165" to-port="0" />
		<edge from-layer="145" from-port="0" to-layer="146" to-port="1" />
		<edge from-layer="146" from-port="2" to-layer="148" to-port="0" />
		<edge from-layer="147" from-port="0" to-layer="148" to-port="1" />
		<edge from-layer="148" from-port="2" to-layer="149" to-port="0" />
		<edge from-layer="149" from-port="1" to-layer="166" to-port="0" />
		<edge from-layer="150" from-port="0" to-layer="151" to-port="1" />
		<edge from-layer="151" from-port="2" to-layer="153" to-port="0" />
		<edge from-layer="152" from-port="0" to-layer="153" to-port="1" />
		<edge from-layer="153" from-port="2" to-layer="154" to-port="0" />
		<edge from-layer="154" from-port="1" to-layer="156" to-port="0" />
		<edge from-layer="155" from-port="0" to-layer="156" to-port="1" />
		<edge from-layer="156" from-port="2" to-layer="158" to-port="0" />
		<edge from-layer="157" from-port="0" to-layer="158" to-port="1" />
		<edge from-layer="158" from-port="2" to-layer="159" to-port="0" />
		<edge from-layer="159" from-port="1" to-layer="161" to-port="0" />
		<edge from-layer="160" from-port="0" to-layer="161" to-port="1" />
		<edge from-layer="161" from-port="2" to-layer="163" to-port="0" />
		<edge from-layer="162" from-port="0" to-layer="163" to-port="1" />
		<edge from-layer="163" from-port="2" to-layer="164" to-port="0" />
		<edge from-layer="164" from-port="1" to-layer="166" to-port="1" />
		<edge from-layer="165" from-port="1" to-layer="166" to-port="2" />
		<edge from-layer="166" from-port="3" to-layer="168" to-port="0" />
		<edge from-layer="166" from-port="3" to-layer="173" to-port="0" />
		<edge from-layer="166" from-port="3" to-layer="188" to-port="0" />
		<edge from-layer="166" from-port="3" to-layer="212" to-port="0" />
		<edge from-layer="167" from-port="0" to-layer="168" to-port="1" />
		<edge from-layer="168" from-port="2" to-layer="170" to-port="0" />
		<edge from-layer="169" from-port="0" to-layer="170" to-port="1" />
		<edge from-layer="170" from-port="2" to-layer="171" to-port="0" />
		<edge from-layer="171" from-port="1" to-layer="218" to-port="0" />
		<edge from-layer="172" from-port="0" to-layer="173" to-port="1" />
		<edge from-layer="173" from-port="2" to-layer="175" to-port="0" />
		<edge from-layer="174" from-port="0" to-layer="175" to-port="1" />
		<edge from-layer="175" from-port="2" to-layer="176" to-port="0" />
		<edge from-layer="176" from-port="1" to-layer="178" to-port="0" />
		<edge from-layer="177" from-port="0" to-layer="178" to-port="1" />
		<edge from-layer="178" from-port="2" to-layer="180" to-port="0" />
		<edge from-layer="179" from-port="0" to-layer="180" to-port="1" />
		<edge from-layer="180" from-port="2" to-layer="181" to-port="0" />
		<edge from-layer="181" from-port="1" to-layer="183" to-port="0" />
		<edge from-layer="182" from-port="0" to-layer="183" to-port="1" />
		<edge from-layer="183" from-port="2" to-layer="185" to-port="0" />
		<edge from-layer="184" from-port="0" to-layer="185" to-port="1" />
		<edge from-layer="185" from-port="2" to-layer="186" to-port="0" />
		<edge from-layer="186" from-port="1" to-layer="218" to-port="1" />
		<edge from-layer="187" from-port="0" to-layer="188" to-port="1" />
		<edge from-layer="188" from-port="2" to-layer="190" to-port="0" />
		<edge from-layer="189" from-port="0" to-layer="190" to-port="1" />
		<edge from-layer="190" from-port="2" to-layer="191" to-port="0" />
		<edge from-layer="191" from-port="1" to-layer="193" to-port="0" />
		<edge from-layer="192" from-port="0" to-layer="193" to-port="1" />
		<edge from-layer="193" from-port="2" to-layer="195" to-port="0" />
		<edge from-layer="194" from-port="0" to-layer="195" to-port="1" />
		<edge from-layer="195" from-port="2" to-layer="196" to-port="0" />
		<edge from-layer="196" from-port="1" to-layer="198" to-port="0" />
		<edge from-layer="197" from-port="0" to-layer="198" to-port="1" />
		<edge from-layer="198" from-port="2" to-layer="200" to-port="0" />
		<edge from-layer="199" from-port="0" to-layer="200" to-port="1" />
		<edge from-layer="200" from-port="2" to-layer="201" to-port="0" />
		<edge from-layer="201" from-port="1" to-layer="203" to-port="0" />
		<edge from-layer="202" from-port="0" to-layer="203" to-port="1" />
		<edge from-layer="203" from-port="2" to-layer="205" to-port="0" />
		<edge from-layer="204" from-port="0" to-layer="205" to-port="1" />
		<edge from-layer="205" from-port="2" to-layer="206" to-port="0" />
		<edge from-layer="206" from-port="1" to-layer="208" to-port="0" />
		<edge from-layer="207" from-port="0" to-layer="208" to-port="1" />
		<edge from-layer="208" from-port="2" to-layer="210" to-port="0" />
		<edge from-layer="209" from-port="0" to-layer="210" to-port="1" />
		<edge from-layer="210" from-port="2" to-layer="211" to-port="0" />
		<edge from-layer="211" from-port="1" to-layer="218" to-port="2" />
		<edge from-layer="212" from-port="1" to-layer="214" to-port="0" />
		<edge from-layer="213" from-port="0" to-layer="214" to-port="1" />
		<edge from-layer="214" from-port="2" to-layer="216" to-port="0" />
		<edge from-layer="215" from-port="0" to-layer="216" to-port="1" />
		<edge from-layer="216" from-port="2" to-layer="217" to-port="0" />
		<edge from-layer="217" from-port="1" to-layer="218" to-port="3" />
		<edge from-layer="218" from-port="4" to-layer="220" to-port="0" />
		<edge from-layer="218" from-port="4" to-layer="225" to-port="0" />
		<edge from-layer="218" from-port="4" to-layer="240" to-port="0" />
		<edge from-layer="218" from-port="4" to-layer="264" to-port="0" />
		<edge from-layer="219" from-port="0" to-layer="220" to-port="1" />
		<edge from-layer="220" from-port="2" to-layer="222" to-port="0" />
		<edge from-layer="221" from-port="0" to-layer="222" to-port="1" />
		<edge from-layer="222" from-port="2" to-layer="223" to-port="0" />
		<edge from-layer="223" from-port="1" to-layer="270" to-port="0" />
		<edge from-layer="224" from-port="0" to-layer="225" to-port="1" />
		<edge from-layer="225" from-port="2" to-layer="227" to-port="0" />
		<edge from-layer="226" from-port="0" to-layer="227" to-port="1" />
		<edge from-layer="227" from-port="2" to-layer="228" to-port="0" />
		<edge from-layer="228" from-port="1" to-layer="230" to-port="0" />
		<edge from-layer="229" from-port="0" to-layer="230" to-port="1" />
		<edge from-layer="230" from-port="2" to-layer="232" to-port="0" />
		<edge from-layer="231" from-port="0" to-layer="232" to-port="1" />
		<edge from-layer="232" from-port="2" to-layer="233" to-port="0" />
		<edge from-layer="233" from-port="1" to-layer="235" to-port="0" />
		<edge from-layer="234" from-port="0" to-layer="235" to-port="1" />
		<edge from-layer="235" from-port="2" to-layer="237" to-port="0" />
		<edge from-layer="236" from-port="0" to-layer="237" to-port="1" />
		<edge from-layer="237" from-port="2" to-layer="238" to-port="0" />
		<edge from-layer="238" from-port="1" to-layer="270" to-port="1" />
		<edge from-layer="239" from-port="0" to-layer="240" to-port="1" />
		<edge from-layer="240" from-port="2" to-layer="242" to-port="0" />
		<edge from-layer="241" from-port="0" to-layer="242" to-port="1" />
		<edge from-layer="242" from-port="2" to-layer="243" to-port="0" />
		<edge from-layer="243" from-port="1" to-layer="245" to-port="0" />
		<edge from-layer="244" from-port="0" to-layer="245" to-port="1" />
		<edge from-layer="245" from-port="2" to-layer="247" to-port="0" />
		<edge from-layer="246" from-port="0" to-layer="247" to-port="1" />
		<edge from-layer="247" from-port="2" to-layer="248" to-port="0" />
		<edge from-layer="248" from-port="1" to-layer="250" to-port="0" />
		<edge from-layer="249" from-port="0" to-layer="250" to-port="1" />
		<edge from-layer="250" from-port="2" to-layer="252" to-port="0" />
		<edge from-layer="251" from-port="0" to-layer="252" to-port="1" />
		<edge from-layer="252" from-port="2" to-layer="253" to-port="0" />
		<edge from-layer="253" from-port="1" to-layer="255" to-port="0" />
		<edge from-layer="254" from-port="0" to-layer="255" to-port="1" />
		<edge from-layer="255" from-port="2" to-layer="257" to-port="0" />
		<edge from-layer="256" from-port="0" to-layer="257" to-port="1" />
		<edge from-layer="257" from-port="2" to-layer="258" to-port="0" />
		<edge from-layer="258" from-port="1" to-layer="260" to-port="0" />
		<edge from-layer="259" from-port="0" to-layer="260" to-port="1" />
		<edge from-layer="260" from-port="2" to-layer="262" to-port="0" />
		<edge from-layer="261" from-port="0" to-layer="262" to-port="1" />
		<edge from-layer="262" from-port="2" to-layer="263" to-port="0" />
		<edge from-layer="263" from-port="1" to-layer="270" to-port="2" />
		<edge from-layer="264" from-port="1" to-layer="266" to-port="0" />
		<edge from-layer="265" from-port="0" to-layer="266" to-port="1" />
		<edge from-layer="266" from-port="2" to-layer="268" to-port="0" />
		<edge from-layer="267" from-port="0" to-layer="268" to-port="1" />
		<edge from-layer="268" from-port="2" to-layer="269" to-port="0" />
		<edge from-layer="269" from-port="1" to-layer="270" to-port="3" />
		<edge from-layer="270" from-port="4" to-layer="272" to-port="0" />
		<edge from-layer="270" from-port="4" to-layer="292" to-port="0" />
		<edge from-layer="270" from-port="4" to-layer="277" to-port="0" />
		<edge from-layer="270" from-port="4" to-layer="316" to-port="0" />
		<edge from-layer="271" from-port="0" to-layer="272" to-port="1" />
		<edge from-layer="272" from-port="2" to-layer="274" to-port="0" />
		<edge from-layer="273" from-port="0" to-layer="274" to-port="1" />
		<edge from-layer="274" from-port="2" to-layer="275" to-port="0" />
		<edge from-layer="275" from-port="1" to-layer="322" to-port="0" />
		<edge from-layer="276" from-port="0" to-layer="277" to-port="1" />
		<edge from-layer="277" from-port="2" to-layer="279" to-port="0" />
		<edge from-layer="278" from-port="0" to-layer="279" to-port="1" />
		<edge from-layer="279" from-port="2" to-layer="280" to-port="0" />
		<edge from-layer="280" from-port="1" to-layer="282" to-port="0" />
		<edge from-layer="281" from-port="0" to-layer="282" to-port="1" />
		<edge from-layer="282" from-port="2" to-layer="284" to-port="0" />
		<edge from-layer="283" from-port="0" to-layer="284" to-port="1" />
		<edge from-layer="284" from-port="2" to-layer="285" to-port="0" />
		<edge from-layer="285" from-port="1" to-layer="287" to-port="0" />
		<edge from-layer="286" from-port="0" to-layer="287" to-port="1" />
		<edge from-layer="287" from-port="2" to-layer="289" to-port="0" />
		<edge from-layer="288" from-port="0" to-layer="289" to-port="1" />
		<edge from-layer="289" from-port="2" to-layer="290" to-port="0" />
		<edge from-layer="290" from-port="1" to-layer="322" to-port="1" />
		<edge from-layer="291" from-port="0" to-layer="292" to-port="1" />
		<edge from-layer="292" from-port="2" to-layer="294" to-port="0" />
		<edge from-layer="293" from-port="0" to-layer="294" to-port="1" />
		<edge from-layer="294" from-port="2" to-layer="295" to-port="0" />
		<edge from-layer="295" from-port="1" to-layer="297" to-port="0" />
		<edge from-layer="296" from-port="0" to-layer="297" to-port="1" />
		<edge from-layer="297" from-port="2" to-layer="299" to-port="0" />
		<edge from-layer="298" from-port="0" to-layer="299" to-port="1" />
		<edge from-layer="299" from-port="2" to-layer="300" to-port="0" />
		<edge from-layer="300" from-port="1" to-layer="302" to-port="0" />
		<edge from-layer="301" from-port="0" to-layer="302" to-port="1" />
		<edge from-layer="302" from-port="2" to-layer="304" to-port="0" />
		<edge from-layer="303" from-port="0" to-layer="304" to-port="1" />
		<edge from-layer="304" from-port="2" to-layer="305" to-port="0" />
		<edge from-layer="305" from-port="1" to-layer="307" to-port="0" />
		<edge from-layer="306" from-port="0" to-layer="307" to-port="1" />
		<edge from-layer="307" from-port="2" to-layer="309" to-port="0" />
		<edge from-layer="308" from-port="0" to-layer="309" to-port="1" />
		<edge from-layer="309" from-port="2" to-layer="310" to-port="0" />
		<edge from-layer="310" from-port="1" to-layer="312" to-port="0" />
		<edge from-layer="311" from-port="0" to-layer="312" to-port="1" />
		<edge from-layer="312" from-port="2" to-layer="314" to-port="0" />
		<edge from-layer="313" from-port="0" to-layer="314" to-port="1" />
		<edge from-layer="314" from-port="2" to-layer="315" to-port="0" />
		<edge from-layer="315" from-port="1" to-layer="322" to-port="2" />
		<edge from-layer="316" from-port="1" to-layer="318" to-port="0" />
		<edge from-layer="317" from-port="0" to-layer="318" to-port="1" />
		<edge from-layer="318" from-port="2" to-layer="320" to-port="0" />
		<edge from-layer="319" from-port="0" to-layer="320" to-port="1" />
		<edge from-layer="320" from-port="2" to-layer="321" to-port="0" />
		<edge from-layer="321" from-port="1" to-layer="322" to-port="3" />
		<edge from-layer="322" from-port="4" to-layer="324" to-port="0" />
		<edge from-layer="322" from-port="4" to-layer="329" to-port="0" />
		<edge from-layer="322" from-port="4" to-layer="344" to-port="0" />
		<edge from-layer="322" from-port="4" to-layer="368" to-port="0" />
		<edge from-layer="323" from-port="0" to-layer="324" to-port="1" />
		<edge from-layer="324" from-port="2" to-layer="326" to-port="0" />
		<edge from-layer="325" from-port="0" to-layer="326" to-port="1" />
		<edge from-layer="326" from-port="2" to-layer="327" to-port="0" />
		<edge from-layer="327" from-port="1" to-layer="374" to-port="0" />
		<edge from-layer="328" from-port="0" to-layer="329" to-port="1" />
		<edge from-layer="329" from-port="2" to-layer="331" to-port="0" />
		<edge from-layer="330" from-port="0" to-layer="331" to-port="1" />
		<edge from-layer="331" from-port="2" to-layer="332" to-port="0" />
		<edge from-layer="332" from-port="1" to-layer="334" to-port="0" />
		<edge from-layer="333" from-port="0" to-layer="334" to-port="1" />
		<edge from-layer="334" from-port="2" to-layer="336" to-port="0" />
		<edge from-layer="335" from-port="0" to-layer="336" to-port="1" />
		<edge from-layer="336" from-port="2" to-layer="337" to-port="0" />
		<edge from-layer="337" from-port="1" to-layer="339" to-port="0" />
		<edge from-layer="338" from-port="0" to-layer="339" to-port="1" />
		<edge from-layer="339" from-port="2" to-layer="341" to-port="0" />
		<edge from-layer="340" from-port="0" to-layer="341" to-port="1" />
		<edge from-layer="341" from-port="2" to-layer="342" to-port="0" />
		<edge from-layer="342" from-port="1" to-layer="374" to-port="1" />
		<edge from-layer="343" from-port="0" to-layer="344" to-port="1" />
		<edge from-layer="344" from-port="2" to-layer="346" to-port="0" />
		<edge from-layer="345" from-port="0" to-layer="346" to-port="1" />
		<edge from-layer="346" from-port="2" to-layer="347" to-port="0" />
		<edge from-layer="347" from-port="1" to-layer="349" to-port="0" />
		<edge from-layer="348" from-port="0" to-layer="349" to-port="1" />
		<edge from-layer="349" from-port="2" to-layer="351" to-port="0" />
		<edge from-layer="350" from-port="0" to-layer="351" to-port="1" />
		<edge from-layer="351" from-port="2" to-layer="352" to-port="0" />
		<edge from-layer="352" from-port="1" to-layer="354" to-port="0" />
		<edge from-layer="353" from-port="0" to-layer="354" to-port="1" />
		<edge from-layer="354" from-port="2" to-layer="356" to-port="0" />
		<edge from-layer="355" from-port="0" to-layer="356" to-port="1" />
		<edge from-layer="356" from-port="2" to-layer="357" to-port="0" />
		<edge from-layer="357" from-port="1" to-layer="359" to-port="0" />
		<edge from-layer="358" from-port="0" to-layer="359" to-port="1" />
		<edge from-layer="359" from-port="2" to-layer="361" to-port="0" />
		<edge from-layer="360" from-port="0" to-layer="361" to-port="1" />
		<edge from-layer="361" from-port="2" to-layer="362" to-port="0" />
		<edge from-layer="362" from-port="1" to-layer="364" to-port="0" />
		<edge from-layer="363" from-port="0" to-layer="364" to-port="1" />
		<edge from-layer="364" from-port="2" to-layer="366" to-port="0" />
		<edge from-layer="365" from-port="0" to-layer="366" to-port="1" />
		<edge from-layer="366" from-port="2" to-layer="367" to-port="0" />
		<edge from-layer="367" from-port="1" to-layer="374" to-port="2" />
		<edge from-layer="368" from-port="1" to-layer="370" to-port="0" />
		<edge from-layer="369" from-port="0" to-layer="370" to-port="1" />
		<edge from-layer="370" from-port="2" to-layer="372" to-port="0" />
		<edge from-layer="371" from-port="0" to-layer="372" to-port="1" />
		<edge from-layer="372" from-port="2" to-layer="373" to-port="0" />
		<edge from-layer="373" from-port="1" to-layer="374" to-port="3" />
		<edge from-layer="374" from-port="4" to-layer="376" to-port="0" />
		<edge from-layer="374" from-port="4" to-layer="386" to-port="0" />
		<edge from-layer="374" from-port="4" to-layer="405" to-port="0" />
		<edge from-layer="375" from-port="0" to-layer="376" to-port="1" />
		<edge from-layer="376" from-port="2" to-layer="378" to-port="0" />
		<edge from-layer="377" from-port="0" to-layer="378" to-port="1" />
		<edge from-layer="378" from-port="2" to-layer="379" to-port="0" />
		<edge from-layer="379" from-port="1" to-layer="381" to-port="0" />
		<edge from-layer="380" from-port="0" to-layer="381" to-port="1" />
		<edge from-layer="381" from-port="2" to-layer="383" to-port="0" />
		<edge from-layer="382" from-port="0" to-layer="383" to-port="1" />
		<edge from-layer="383" from-port="2" to-layer="384" to-port="0" />
		<edge from-layer="384" from-port="1" to-layer="406" to-port="0" />
		<edge from-layer="385" from-port="0" to-layer="386" to-port="1" />
		<edge from-layer="386" from-port="2" to-layer="388" to-port="0" />
		<edge from-layer="387" from-port="0" to-layer="388" to-port="1" />
		<edge from-layer="388" from-port="2" to-layer="389" to-port="0" />
		<edge from-layer="389" from-port="1" to-layer="391" to-port="0" />
		<edge from-layer="390" from-port="0" to-layer="391" to-port="1" />
		<edge from-layer="391" from-port="2" to-layer="393" to-port="0" />
		<edge from-layer="392" from-port="0" to-layer="393" to-port="1" />
		<edge from-layer="393" from-port="2" to-layer="394" to-port="0" />
		<edge from-layer="394" from-port="1" to-layer="396" to-port="0" />
		<edge from-layer="395" from-port="0" to-layer="396" to-port="1" />
		<edge from-layer="396" from-port="2" to-layer="398" to-port="0" />
		<edge from-layer="397" from-port="0" to-layer="398" to-port="1" />
		<edge from-layer="398" from-port="2" to-layer="399" to-port="0" />
		<edge from-layer="399" from-port="1" to-layer="401" to-port="0" />
		<edge from-layer="400" from-port="0" to-layer="401" to-port="1" />
		<edge from-layer="401" from-port="2" to-layer="403" to-port="0" />
		<edge from-layer="402" from-port="0" to-layer="403" to-port="1" />
		<edge from-layer="403" from-port="2" to-layer="404" to-port="0" />
		<edge from-layer="404" from-port="1" to-layer="406" to-port="1" />
		<edge from-layer="405" from-port="1" to-layer="406" to-port="2" />
		<edge from-layer="406" from-port="3" to-layer="408" to-port="0" />
		<edge from-layer="406" from-port="3" to-layer="413" to-port="0" />
		<edge from-layer="406" from-port="3" to-layer="429" to-port="0" />
		<edge from-layer="406" from-port="3" to-layer="449" to-port="0" />
		<edge from-layer="407" from-port="0" to-layer="408" to-port="1" />
		<edge from-layer="408" from-port="2" to-layer="410" to-port="0" />
		<edge from-layer="409" from-port="0" to-layer="410" to-port="1" />
		<edge from-layer="410" from-port="2" to-layer="411" to-port="0" />
		<edge from-layer="411" from-port="1" to-layer="455" to-port="0" />
		<edge from-layer="412" from-port="0" to-layer="413" to-port="1" />
		<edge from-layer="413" from-port="2" to-layer="415" to-port="0" />
		<edge from-layer="414" from-port="0" to-layer="415" to-port="1" />
		<edge from-layer="415" from-port="2" to-layer="416" to-port="0" />
		<edge from-layer="416" from-port="1" to-layer="418" to-port="0" />
		<edge from-layer="416" from-port="1" to-layer="423" to-port="0" />
		<edge from-layer="417" from-port="0" to-layer="418" to-port="1" />
		<edge from-layer="418" from-port="2" to-layer="420" to-port="0" />
		<edge from-layer="419" from-port="0" to-layer="420" to-port="1" />
		<edge from-layer="420" from-port="2" to-layer="421" to-port="0" />
		<edge from-layer="421" from-port="1" to-layer="427" to-port="0" />
		<edge from-layer="422" from-port="0" to-layer="423" to-port="1" />
		<edge from-layer="423" from-port="2" to-layer="425" to-port="0" />
		<edge from-layer="424" from-port="0" to-layer="425" to-port="1" />
		<edge from-layer="425" from-port="2" to-layer="426" to-port="0" />
		<edge from-layer="426" from-port="1" to-layer="427" to-port="1" />
		<edge from-layer="427" from-port="2" to-layer="455" to-port="1" />
		<edge from-layer="428" from-port="0" to-layer="429" to-port="1" />
		<edge from-layer="429" from-port="2" to-layer="431" to-port="0" />
		<edge from-layer="430" from-port="0" to-layer="431" to-port="1" />
		<edge from-layer="431" from-port="2" to-layer="432" to-port="0" />
		<edge from-layer="432" from-port="1" to-layer="434" to-port="0" />
		<edge from-layer="433" from-port="0" to-layer="434" to-port="1" />
		<edge from-layer="434" from-port="2" to-layer="436" to-port="0" />
		<edge from-layer="435" from-port="0" to-layer="436" to-port="1" />
		<edge from-layer="436" from-port="2" to-layer="437" to-port="0" />
		<edge from-layer="437" from-port="1" to-layer="444" to-port="0" />
		<edge from-layer="437" from-port="1" to-layer="439" to-port="0" />
		<edge from-layer="438" from-port="0" to-layer="439" to-port="1" />
		<edge from-layer="439" from-port="2" to-layer="441" to-port="0" />
		<edge from-layer="440" from-port="0" to-layer="441" to-port="1" />
		<edge from-layer="441" from-port="2" to-layer="442" to-port="0" />
		<edge from-layer="442" from-port="1" to-layer="448" to-port="0" />
		<edge from-layer="443" from-port="0" to-layer="444" to-port="1" />
		<edge from-layer="444" from-port="2" to-layer="446" to-port="0" />
		<edge from-layer="445" from-port="0" to-layer="446" to-port="1" />
		<edge from-layer="446" from-port="2" to-layer="447" to-port="0" />
		<edge from-layer="447" from-port="1" to-layer="448" to-port="1" />
		<edge from-layer="448" from-port="2" to-layer="455" to-port="2" />
		<edge from-layer="449" from-port="1" to-layer="451" to-port="0" />
		<edge from-layer="450" from-port="0" to-layer="451" to-port="1" />
		<edge from-layer="451" from-port="2" to-layer="453" to-port="0" />
		<edge from-layer="452" from-port="0" to-layer="453" to-port="1" />
		<edge from-layer="453" from-port="2" to-layer="454" to-port="0" />
		<edge from-layer="454" from-port="1" to-layer="455" to-port="3" />
		<edge from-layer="455" from-port="4" to-layer="457" to-port="0" />
		<edge from-layer="455" from-port="4" to-layer="462" to-port="0" />
		<edge from-layer="455" from-port="4" to-layer="478" to-port="0" />
		<edge from-layer="455" from-port="4" to-layer="498" to-port="0" />
		<edge from-layer="456" from-port="0" to-layer="457" to-port="1" />
		<edge from-layer="457" from-port="2" to-layer="459" to-port="0" />
		<edge from-layer="458" from-port="0" to-layer="459" to-port="1" />
		<edge from-layer="459" from-port="2" to-layer="460" to-port="0" />
		<edge from-layer="460" from-port="1" to-layer="504" to-port="0" />
		<edge from-layer="461" from-port="0" to-layer="462" to-port="1" />
		<edge from-layer="462" from-port="2" to-layer="464" to-port="0" />
		<edge from-layer="463" from-port="0" to-layer="464" to-port="1" />
		<edge from-layer="464" from-port="2" to-layer="465" to-port="0" />
		<edge from-layer="465" from-port="1" to-layer="467" to-port="0" />
		<edge from-layer="465" from-port="1" to-layer="472" to-port="0" />
		<edge from-layer="466" from-port="0" to-layer="467" to-port="1" />
		<edge from-layer="467" from-port="2" to-layer="469" to-port="0" />
		<edge from-layer="468" from-port="0" to-layer="469" to-port="1" />
		<edge from-layer="469" from-port="2" to-layer="470" to-port="0" />
		<edge from-layer="470" from-port="1" to-layer="476" to-port="0" />
		<edge from-layer="471" from-port="0" to-layer="472" to-port="1" />
		<edge from-layer="472" from-port="2" to-layer="474" to-port="0" />
		<edge from-layer="473" from-port="0" to-layer="474" to-port="1" />
		<edge from-layer="474" from-port="2" to-layer="475" to-port="0" />
		<edge from-layer="475" from-port="1" to-layer="476" to-port="1" />
		<edge from-layer="476" from-port="2" to-layer="504" to-port="1" />
		<edge from-layer="477" from-port="0" to-layer="478" to-port="1" />
		<edge from-layer="478" from-port="2" to-layer="480" to-port="0" />
		<edge from-layer="479" from-port="0" to-layer="480" to-port="1" />
		<edge from-layer="480" from-port="2" to-layer="481" to-port="0" />
		<edge from-layer="481" from-port="1" to-layer="483" to-port="0" />
		<edge from-layer="482" from-port="0" to-layer="483" to-port="1" />
		<edge from-layer="483" from-port="2" to-layer="485" to-port="0" />
		<edge from-layer="484" from-port="0" to-layer="485" to-port="1" />
		<edge from-layer="485" from-port="2" to-layer="486" to-port="0" />
		<edge from-layer="486" from-port="1" to-layer="488" to-port="0" />
		<edge from-layer="486" from-port="1" to-layer="493" to-port="0" />
		<edge from-layer="487" from-port="0" to-layer="488" to-port="1" />
		<edge from-layer="488" from-port="2" to-layer="490" to-port="0" />
		<edge from-layer="489" from-port="0" to-layer="490" to-port="1" />
		<edge from-layer="490" from-port="2" to-layer="491" to-port="0" />
		<edge from-layer="491" from-port="1" to-layer="497" to-port="0" />
		<edge from-layer="492" from-port="0" to-layer="493" to-port="1" />
		<edge from-layer="493" from-port="2" to-layer="495" to-port="0" />
		<edge from-layer="494" from-port="0" to-layer="495" to-port="1" />
		<edge from-layer="495" from-port="2" to-layer="496" to-port="0" />
		<edge from-layer="496" from-port="1" to-layer="497" to-port="1" />
		<edge from-layer="497" from-port="2" to-layer="504" to-port="2" />
		<edge from-layer="498" from-port="1" to-layer="500" to-port="0" />
		<edge from-layer="499" from-port="0" to-layer="500" to-port="1" />
		<edge from-layer="500" from-port="2" to-layer="502" to-port="0" />
		<edge from-layer="501" from-port="0" to-layer="502" to-port="1" />
		<edge from-layer="502" from-port="2" to-layer="503" to-port="0" />
		<edge from-layer="503" from-port="1" to-layer="504" to-port="3" />
		<edge from-layer="504" from-port="4" to-layer="506" to-port="0" />
		<edge from-layer="505" from-port="0" to-layer="506" to-port="1" />
		<edge from-layer="506" from-port="2" to-layer="507" to-port="0" />
	</edges>
	<rt_info>
		<MO_version value="2022.3.0-9052-9752fafe8eb-releases/2022/3" />
		<Runtime_version value="2022.3.0-9052-9752fafe8eb-releases/2022/3" />
		<conversion_parameters>
			<data_type value="FP32" />
			<framework value="tf" />
			<input_shape value="[1, 224, 299, 3]" />
			<model_name value="saved_model" />
			<output_dir value="C:\Users\Ayush\test_openvino\inceptionv3_model_ir" />
			<saved_model_dir value="DIR" />
		</conversion_parameters>
		<legacy_frontend value="True" />
	</rt_info>
</net>
